car_distance.pth (torch, 179395 bytes, 9 tensors)

fc1.weight f4 [256, 2]
0	0x3ea589e7	0.32331774
1	0xbec459b2	-0.38349682
2	0xbeab22af	-0.334249
3	0xbf0c7918	-0.54872274
4	0x3f18888c	0.59583354
5	0x3df5c1bb	0.11999842
6	0x3cd54e73	0.026038384
7	0x3f141547	0.57844967
8	0x3e31c6cc	0.17360991
9	0xbf05dd70	-0.5229101
10	0x3f01fa26	0.5077232
11	0x3f252b12	0.64518845
12	0x3f3322f5	0.69975215
13	0x3e92866d	0.28618184
14	0xbea60c7a	-0.32431394
15	0x3e81fe02	0.25389105
16	0xbe86da02	-0.26338202
17	0x3e20214f	0.15637706
18	0x3e5d80ad	0.21631117
19	0x3ecbfdb9	0.39842013
20	0x3f23a777	0.63927406
21	0xbecccffa	-0.40002424
22	0xbe2b10f4	-0.16705686
23	0x3dc877b0	0.097884536
24	0x3f23c408	0.63970995
25	0xbed5d8ec	-0.4176706
26	0x3f2c6aad	0.67350274
27	0xbea18730	-0.31548452
28	0xbf1e90f7	-0.6193995
29	0x3ebaad60	0.364604
30	0xbd117c67	-0.03551903
31	0x3f1f2f7a	0.6218182
32	0xbf0736f5	-0.5281823
33	0x3b614079	0.0034370704
34	0x3e86ee02	0.2635346
35	0xbf15260d	-0.58261186
36	0x3f0d6fac	0.5524852
37	0xbed23753	-0.41057834
38	0xbf391abf	-0.72306436
39	0xbebed12b	-0.37268957
40	0x3e245dbf	0.16051386
41	0xbe543be8	-0.20725977
42	0x3e596b28	0.21232283
43	0x3d339a03	0.04384805
44	0x3eb95302	0.36196142
45	0x3e591ec3	0.21203141
46	0x3f0ce67f	0.5503921
47	0xbf2a18c3	-0.66444033
48	0x3f316c0f	0.6930551
49	0x3f24df89	0.6440359
50	0x3eeb0722	0.4590388
51	0x3e8cb329	0.27480438
52	0xbe8a11c1	-0.2696667
53	0xbf1b8511	-0.6074992
54	0xbdda0282	-0.106450096
55	0xbeaa6aaf	-0.33284518
56	0xbf0ca717	-0.5494246
57	0x3f144de7	0.5793137
58	0x3f1bc4a0	0.608469
59	0x3d0f5384	0.034991756
60	0x3d12cc40	0.03583932
61	0x3f2f0f6c	0.68382907
62	0xbe7df48d	-0.2480032
63	0x3ea52305	0.3225328
64	0x3e060864	0.13089138
65	0x3efff0ea	0.4998849
66	0xbf1d07bc	-0.61339927
67	0x3f13128f	0.57450193
68	0xbe3a8ba5	-0.18217333
69	0xbf1ecc6f	-0.6203069
70	0x3f09e806	0.53869665
71	0xbf2bb833	-0.6707794
72	0x3ea4bd01	0.3217545
73	0x3daea5f1	0.085277446
74	0xbd44d9a7	-0.048059132
75	0xbf2ccc5b	-0.6749932
76	0xbf13b4b7	-0.57697624
77	0xbe640792	-0.22268513
78	0xbeab5543	-0.33463487
79	0xbedf3f41	-0.43602946
80	0xbd7d9c35	-0.06191655
81	0xbf321903	-0.69569415
82	0x3f125472	0.57160103
83	0xbf02a8e3	-0.5103895
84	0x3e948184	0.29005063
85	0xbe0e6c1d	-0.1390843
86	0x3f0b3713	0.5438091
87	0x3f203191	0.6257563
88	0xbf14bad2	-0.58097565
89	0x3f11228b	0.56693333
90	0xbeca7066	-0.39538878
91	0x3e59f386	0.21284303
92	0x3e100421	0.14064075
93	0x3e926785	0.28594604
94	0xbe3d5bee	-0.184921
95	0x3f07d73f	0.53062814
96	0xbea28ce0	-0.31748104
97	0x3f34ec10	0.706727
98	0x3ef3b348	0.47597718
99	0xbe50eb06	-0.20402154
100	0x3dc9161e	0.09818672
101	0xbf1dec44	-0.6168864
102	0xbdfd450f	-0.123666875
103	0xbe83144f	-0.25601432
104	0x3ed6f3be	0.41982836
105	0x3e3d6616	0.18495974
106	0xbd85ff88	-0.06542879
107	0xbed3afa8	-0.41344953
108	0x3d319750	0.043357193
109	0xbd0a2e40	-0.033735514
110	0x3ed7d17f	0.4215202
111	0xbf1375f9	-0.57601887
112	0xbf01d9e9	-0.5072313
113	0xbeaa78a5	-0.3329517
114	0xbdd8029c	-0.10547373
115	0xbd1db8ee	-0.03850644
116	0x3f153216	0.5827955
117	0xbf10d6b4	-0.5657761
118	0xbf0e1d38	-0.55513334
119	0xbf1ce616	-0.61288583
120	0xbeccc90d	-0.3999714
121	0xbe83b622	-0.25724894
122	0xbefe6f8e	-0.49694484
123	0xbe4213c7	-0.18952857
124	0xbf22480d	-0.6339119
125	0x3eb3e2d1	0.35133985
126	0xbf1cef0b	-0.6130225
127	0xbeca9079	-0.3956335
128	0xbd97ae0e	-0.07406245
129	0x3e30b874	0.17257863
130	0xbe4cf733	-0.20016174
131	0x3dd0a93b	0.10188528
132	0x3f1931cd	0.59841615
133	0x3e834fd9	0.25646856
134	0x3eac952e	0.33707565
135	0xbe1712d2	-0.14753273
136	0xbf2b9313	-0.6702129
137	0xbeb64457	-0.35599014
138	0xbdb519aa	-0.08842786
139	0x3eb629f1	0.35578874
140	0x3f1c2d77	0.61006874
141	0xbf01f612	-0.507661
142	0xbf07be5d	-0.53024846
143	0x3e4f1a7d	0.20224948
144	0x3dd1891e	0.10231231
145	0x3e7350c3	0.23761277
146	0xbf13e2a3	-0.57767695
147	0xbd3716c6	-0.044699453
148	0x3f13bcc4	0.5770991
149	0xbdba25da	-0.09089251
150	0xbf20f94b	-0.6288039
151	0x3f24b19b	0.64333504
152	0x3eda7011	0.42663625
153	0xbec50688	-0.38481545
154	0xbe883426	-0.26602286
155	0x3f0c03d9	0.5469337
156	0xbea3cd4e	-0.31992573
157	0xbe2c04e2	-0.16798738
158	0x3f27cc53	0.6554615
159	0xbea0a36f	-0.3137469
160	0x3c8f5543	0.01749671
161	0x3ecaf7aa	0.39642078
162	0x3e9d4808	0.30719018
163	0x3f0d0876	0.55091035
164	0x3d53d5a2	0.051717408
165	0x3f1e4fbd	0.6184042
166	0xbec642ae	-0.38722748
167	0x3e246aaf	0.16056322
168	0xbf3541c2	-0.70803463
169	0xbdb5037c	-0.08838555
170	0xbe9d5908	-0.30731988
171	0xbe198f50	-0.14996076
172	0xbf29df25	-0.66356117
173	0x3eb48e33	0.3526474
174	0xbf1d06fd	-0.6133879
175	0xbed4b72d	-0.41546002
176	0x3ef55144	0.47913563
177	0x3e2e3637	0.17012869
178	0x3eaaeabd	0.33382216
179	0x3eff9142	0.4991551
180	0x3edc0e4d	0.4297966
181	0xbe4b7d59	-0.19872035
182	0xbd896a84	-0.06709769
183	0x3e88a12f	0.26685473
184	0xbefdf21b	-0.49598774
185	0x3f0448d0	0.51673603
186	0xbe9dc0cc	-0.30811155
187	0x3e2f2ae1	0.17106201
188	0x3ba78a1f	0.005112901
189	0x3e96fc98	0.2948959
190	0xbe34e45f	-0.17665242
191	0x3e60d5c0	0.21956539
192	0x3ea55271	0.3228946
193	0x3dfdb78a	0.12388523
194	0xbe636f7b	-0.22210495
195	0x3d4bd610	0.049764693
196	0xbf164207	-0.586945
197	0xbf38f23c	-0.7224462
198	0x3e16804f	0.14697383
199	0xbf0e3b95	-0.55559665
200	0x3e9f405d	0.31103793
201	0xbca886e0	-0.020572126
202	0xbd80de80	-0.062924385
203	0x3f2991b4	0.6623795
204	0xbdf95b2b	-0.12175592
205	0x3f01bf22	0.5068227
206	0xbe02b0e2	-0.12762788
207	0x3e9691b8	0.2940805
208	0x3e61e6a3	0.22060637
209	0xbe90aec0	-0.28258324
210	0xbe370122	-0.17871526
211	0xbf06541f	-0.5247211
212	0x3f192860	0.5982723
213	0xbd9170f1	-0.0710162
214	0xbd8742e3	-0.066045545
215	0x3eaff074	0.3436314
216	0x3f0301b4	0.51174474
217	0x3d0ce64c	0.034399316
218	0xbeaa002e	-0.33203262
219	0xbf20046e	-0.6250676
220	0x3d504fce	0.050857358
221	0x3f2a4b68	0.6652131
222	0xbdb9b859	-0.09068365
223	0xbf281483	-0.656563
224	0x3e366dec	0.1781537
225	0xbe94c613	-0.2905737
226	0x3e876ee4	0.2645179
227	0x3e8a8281	0.27052692
228	0xbedd9b78	-0.43282676
229	0x3f13ec16	0.57782114
230	0x3db1db4c	0.08684406
231	0x3f32325b	0.69608086
232	0xbf012f58	-0.50462866
233	0x3c43cd2e	0.011950774
234	0xbf37851d	-0.7168749
235	0xbe57d999	-0.210791
236	0xbd5f9a47	-0.05459049
237	0xbe6ac7b5	-0.22927745
238	0x3e880e2e	0.26573318
239	0xbf34bfd3	-0.706052
240	0xbe7af7ed	-0.24508639
241	0xbef83d4f	-0.48484275
242	0xbec5ec3c	-0.38656795
243	0xbef0023f	-0.46876714
244	0x3ef108eb	0.47077116
245	0xbe671dda	-0.22569981
246	0xbf1a8eb3	-0.6037399
247	0xbee9a9b4	-0.45637286
248	0x3f0bdc8f	0.5463342
249	0xbee2f40b	-0.44326815
250	0xbe52d44d	-0.20588799
251	0xbefe8469	-0.49710396
252	0x3dacdc87	0.084405
253	0x3f138dc6	0.57638204
254	0x3d8e386e	0.06944357
255	0x3f19efe7	0.60131687

fc1.bias f4 [256]
0	0xbe0c5d5e	-0.13707492
1	0x3ee4f850	0.44720697
2	0x3f3d2770	0.738883
3	0xbe026242	-0.12732795
4	0xbd57250e	-0.052525572
5	0x3e3cc6c8	0.18435204
6	0x3f127c5c	0.5722101
7	0x3cd0573e	0.025432225
8	0xbe063120	-0.13104677
9	0x3ea715fe	0.32633966
10	0x3e761faa	0.24035516
11	0xbf1d83c5	-0.6152919
12	0xbf047497	-0.517404
13	0x3f01c5d4	0.50692487
14	0x3f1db30d	0.61601335
15	0x3f2696ed	0.65074044
16	0xbeda664c	-0.4265617
17	0x3ed7987b	0.4210852
18	0xbeaf28e2	-0.3421088
19	0x3ed5e9fa	0.41780072
20	0x3f034da3	0.5129034
21	0x3f261ec1	0.64890677
22	0x3ec22ab3	0.37923202
23	0x3e455554	0.19270831
24	0xbe71df06	-0.23620233
25	0x3d413042	0.047165163
26	0xbea4413f	-0.3208103
27	0xbdce8561	-0.10084034
28	0x3f2bdfb1	0.671382
29	0xbf1ee7dc	-0.6207254
30	0x3f06acab	0.5260722
31	0x3e88454a	0.26615363
32	0x3c35d35e	0.011097757
33	0x3f3a98af	0.72889227
34	0x3ec38589	0.38187817
35	0x3f12c2b7	0.5732836
36	0xbf092e60	-0.5358639
37	0x3f1b97ae	0.6077832
38	0x3ee5478c	0.44781148
39	0xbd993acd	-0.074819185
40	0xbe9de680	-0.3083992
41	0xbddd24d8	-0.10798043
42	0xbd8f760a	-0.07004936
43	0xbf0d9862	-0.5531064
44	0x3ed7da06	0.42158526
45	0xbeb8725f	-0.36024758
46	0x3ede0d95	0.43369737
47	0xbeb1f0de	-0.3475408
48	0xbed05229	-0.40687683
49	0xbf19b391	-0.6003962
50	0x3f07b387	0.5300831
51	0x3e518ce0	0.20463896
52	0x3f1e4ec5	0.6183894
53	0xbf271a8e	-0.65274894
54	0xbefdc96f	-0.49567744
55	0xbec4f9fe	-0.3847198
56	0x3dca9f0a	0.098936155
57	0x3e7f926e	0.24958202
58	0xbf26c762	-0.65147984
59	0xbe36050b	-0.17775361
60	0xbe9c91bd	-0.3057994
61	0xbeea7341	-0.45791057
62	0xbf0d641a	-0.5523087
63	0x3d70bce5	0.058773894
64	0x3e808a1f	0.25105378
65	0x3f24d34e	0.64384925
66	0x3f07a8a3	0.52991694
67	0xbed6d393	-0.41958293
68	0x3f0d7fc8	0.55273104
69	0xbee1a8f3	-0.4407421
70	0xbecce0ca	-0.4001525
71	0xbe0172b5	-0.12641414
72	0xbee506f6	-0.44731873
73	0xbdd1b7d9	-0.10240144
74	0x3e6a59b8	0.22885787
75	0x3e0bdfa8	0.13659537
76	0xbf0b73c7	-0.5447354
77	0x3ecb2d53	0.39683017
78	0x3f07a7e6	0.5299057
79	0xbe23e396	-0.16004786
80	0x3ef29ed6	0.47386807
81	0x3f246d0f	0.6422891
82	0x3f2e73ad	0.6814526
83	0xbcb64582	-0.02224994
84	0xbf06d1db	-0.52663964
85	0xbf33d494	-0.70246243
86	0xbeb7d7c1	-0.35906795
87	0xbecea245	-0.40358177
88	0xbf3034b2	-0.68830407
89	0xbe17e5e5	-0.14833792
90	0xbf03a14a	-0.5141798
91	0xbf0bd2ca	-0.54618514
92	0xbedeeed7	-0.43541595
93	0xbe89f218	-0.26942515
94	0x3e9bea53	0.30452213
95	0x3f0e4c1f	0.555849
96	0xbe50f248	-0.20404923
97	0x3ed2939e	0.41128248
98	0xbf1c8048	-0.6113324
99	0x3f1df61a	0.61703646
100	0x3ec641c2	0.38722044
101	0xbf00330b	-0.50077885
102	0xbf22fdfc	-0.636688
103	0xbe2e1e73	-0.17003803
104	0x3eff0fc8	0.49816728
105	0x3e9eb77a	0.30999357
106	0x3f1075ce	0.56429756
107	0x3f0bc358	0.54594946
108	0xbf2b2699	-0.6685577
109	0x3ea4ae81	0.32164386
110	0x3ec64b0a	0.38729125
111	0xbf093556	-0.5359701
112	0xbf32f710	-0.6990824
113	0x3f33175c	0.6995752
114	0x3f25c089	0.6474691
115	0x3ec10d82	0.37705618
116	0x3ee0b5fc	0.43888843
117	0xbe933a74	-0.28755534
118	0x3ee2b63d	0.44279662
119	0x3f23b130	0.6394224
120	0xbe8142ad	-0.25246182
121	0xbe848b75	-0.25887647
122	0x3e3437e0	0.1759944
123	0x3edaaece	0.4271149
124	0x3ea558a5	0.32294193
125	0x3e99ec51	0.30063108
126	0x3ea2c6e4	0.31792367
127	0x3f2eb72a	0.68248236
128	0xbf1ead8d	-0.6198357
129	0x3f250b61	0.6447049
130	0x3e974813	0.29547176
131	0x3e49270a	0.19643798
132	0x3eacdc8f	0.33762023
133	0xbecbbdd4	-0.39793265
134	0xbf061e70	-0.52390194
135	0xbebe770d	-0.37200204
136	0x3e1006ac	0.14065045
137	0xbe597a4b	-0.21238057
138	0x3f1fbb9f	0.6239566
139	0x3d889c93	0.06670489
140	0x3f2ad216	0.66726816
141	0xbdc7404b	-0.0972906
142	0xbe8a6c26	-0.27035636
143	0xbf155792	-0.58336747
144	0x3f2fa182	0.68605816
145	0xbe6acb91	-0.22929217
146	0x3ecbf10e	0.39832348
147	0xbf090d94	-0.53536344
148	0x3f2324a2	0.6372777
149	0x3edcb764	0.43108666
150	0x3f0b3f24	0.5439322
151	0x3cb498d7	0.022045536
152	0x3e954ff4	0.29162562
153	0xbe97400f	-0.2954106
154	0x3c7e8748	0.015535183
155	0x3e4770a3	0.19476561
156	0x3e9fcbaf	0.31210086
157	0x3ea89d90	0.3293271
158	0x3e64c25f	0.22339772
159	0x3e6176f3	0.22018032
160	0xbe83757d	-0.25675574
161	0xbcd7d2b7	-0.026345594
162	0x3e5a793d	0.21335311
163	0xbe05d323	-0.13068824
164	0x3d89ba92	0.067250386
165	0x3f2b9583	0.6702501
166	0xbca77e5e	-0.020445999
167	0xbef1687a	-0.47150022
168	0x3e870757	0.26372787
169	0x3e0424b8	0.12904632
170	0x3eaf1512	0.34195763
171	0xbf0e3a2d	-0.5555752
172	0xbf07589e	-0.52869594
173	0xbe42943f	-0.19001864
174	0x3f3619ce	0.71133125
175	0x3d64e120	0.05587876
176	0xbef7bcf8	-0.4838636
177	0xbee0a5a8	-0.43876386
178	0x3f15d74f	0.5853166
179	0xbceaeb22	-0.028676573
180	0x3ec7261d	0.38896266
181	0xbf0d4542	-0.55183804
182	0xbdef823d	-0.11694763
183	0x3e8848b8	0.2661798
184	0xbef3120f	-0.47474715
185	0x3e7215a4	0.23641068
186	0xbea4abc0	-0.32162285
187	0x3e5579d8	0.20847261
188	0xbecf30d1	-0.4046693
189	0xbdfca687	-0.1233645
190	0x3e78272b	0.24233691
191	0x3eef1108	0.4669268
192	0xbd1a4210	-0.03766066
193	0xbed79b92	-0.42110878
194	0xbea3ffe7	-0.32031175
195	0x3e8fca65	0.28084102
196	0x3e142eb1	0.14470936
197	0xbf2254f2	-0.63410866
198	0x3e3b475f	0.18288945
199	0xbeea33e9	-0.4574273
200	0xbea86d5d	-0.32895938
201	0xbf2b0e85	-0.6681903
202	0xbf28ba18	-0.65908957
203	0xbe5c95bf	-0.21541499
204	0xbf1acdd9	-0.6047035
205	0x3dbd8cf4	0.092554
206	0x3e47c1f7	0.19507585
207	0xbd1932cd	-0.037401963
208	0xbe824522	-0.2544337
209	0xbebf35de	-0.37345785
210	0xbea7ef9b	-0.32799992
211	0x3ec3f61d	0.38273707
212	0x3efc495d	0.49274722
213	0xbe807f10	-0.2509694
214	0xbf225168	-0.63405466
215	0xbf179e47	-0.5922589
216	0xbefb5582	-0.49088675
217	0x3e6ed96b	0.23325126
218	0x3f1da232	0.61575615
219	0x3f36aa74	0.7135384
220	0xbee81dbd	-0.45335189
221	0xbbe389b8	-0.0069439076
222	0xbe3e37ac	-0.18575925
223	0xbd4a4a3b	-0.049387198
224	0xbf056598	-0.52108145
225	0xbe03c621	-0.12868549
226	0x3e0a7a92	0.1352332
227	0xbf0a0b49	-0.5392347
228	0xbed0098c	-0.40632284
229	0x3f159d65	0.5844329
230	0xbde14f89	-0.11001498
231	0xbeef7daf	-0.46775576
232	0x3d6678a2	0.05626739
233	0x3de94133	0.11389389
234	0x3f0827e4	0.5318587
235	0xbebfe9fc	-0.37483203
236	0x3f379334	0.7170899
237	0x3eec0679	0.46098688
238	0x3f1598ba	0.5843617
239	0xbeb0ac6a	-0.34506541
240	0xbec0f96e	-0.376903
241	0x3f03ce3e	0.51486576
242	0x3f20dacd	0.62833863
243	0xbe9e04b0	-0.3086295
244	0x3e97309a	0.29529268
245	0x3f26ef20	0.65208626
246	0x3d2341b4	0.03985758
247	0x3f08cbdc	0.53436065
248	0x3c48658f	0.012231245
249	0xbe453044	-0.19256693
250	0x3df44ce5	0.11928729
251	0x3f394909	0.7237707
252	0xbf0930a4	-0.53589845
253	0x3ef744f2	0.4829479
254	0x3f1a8d54	0.603719
255	0xbf138f65	-0.5764068

fc2.weight f4 [128, 256]
0	0xbcf5f00e	-0.030021694
1	0x3cd610d3	0.02613107
2	0xbd161b58	-0.03664717
3	0xbc81591b	-0.01578956
4	0x3d6ef8bc	0.05834268
5	0x3d2aaaad	0.041666675
6	0x3d342a2a	0.043985523
7	0xbd3dce62	-0.0463394
8	0xbe0ea197	-0.13928829
9	0xbd4e7866	-0.05040779
10	0x3d1b6e37	0.037946906
11	0xbd080594	-0.033208445
12	0x3d4f2ef5	0.05058189
13	0x3d100625	0.03516211
14	0x3b2d3603	0.0026429899
15	0xbc92d505	-0.017923841
16	0x3d81379f	0.06309437
17	0xbd10216e	-0.03518813
18	0x3c14747b	0.009060974
19	0x3d417f2d	0.047240425
20	0xbcb16742	-0.021655682
21	0x3d498749	0.049201284
22	0xbd053c12	-0.03252799
23	0x3d85fbbd	0.06542156
24	0x3c24a270	0.010048494
25	0xbcc39cf0	-0.023878545
26	0x3cd63740	0.026149392
27	0x3bdabc88	0.0066753067
28	0x3d106276	0.03525015
29	0x3c81757d	0.015803093
30	0x3d8530cc	0.06503448
31	0x3c2b0ec3	0.010440531
32	0x3d2c1cbf	0.042019602
33	0x3c9c51b6	0.019081932
34	0x3d2b8d59	0.041882847
35	0x3d68e458	0.05685839
36	0xbcf107b8	-0.029422626
37	0x3d3f66d5	0.046728928
38	0xbcca046b	-0.02466031
39	0x3ce41cd9	0.027845787
40	0x3d657ada	0.056025364
41	0xbc24cfdf	-0.010059326
42	0x3d048872	0.032356687
43	0x3b9de940	0.0048190653
44	0x3d942a14	0.07234588
45	0xbd8ab26f	-0.06772315
46	0xbd523d22	-0.051327832
47	0xbd64bbe9	-0.055843268
48	0x3c953b2c	0.018216692
49	0x3c66cc45	0.014086788
50	0x3d831a60	0.06401515
51	0x3d5f028a	0.05444578
52	0xbcaf6d4b	-0.02141442
53	0x3d490848	0.049080163
54	0x3d5c029c	0.053713426
55	0xbd82f9a8	-0.063952744
56	0xbcde9889	-0.027172344
57	0x3d7c138e	0.061542086
58	0xb65c7622	-3.2851317e-06
59	0xbd2ed3a5	-0.04268231
60	0xbd24cc62	-0.040233977
61	0x3d362e83	0.04447795
62	0xbd206ef9	-0.03916833
63	0x3d569585	0.052388687
64	0xbcd220ec	-0.025650464
65	0x3da54498	0.08069724
66	0x3c19a95e	0.009378759
67	0x3c072023	0.008247408
68	0xbd0d1ab1	-0.034449283
69	0xbd922a5d	-0.071369864
70	0x3bad0e1e	0.005281224
71	0x3c9ec129	0.019379215
72	0xbcde46b1	-0.027133318
73	0x3cc89c58	0.024488613
74	0xbcb10576	-0.02160905
75	0xbd21159b	-0.039327245
76	0x3df4a86d	0.11946187
77	0xbcfc2692	-0.03078011
78	0x3d8fd329	0.070226975
79	0x3b390594	0.0028232085
80	0x3cbd0472	0.023073409
81	0xbcfc97a0	-0.03083402
82	0xbd1a9f43	-0.03774954
83	0x3d69c300	0.057070732
84	0x3da8ca46	0.082417056
85	0xbce973f4	-0.028497674
86	0xbe1bda77	-0.15220056
87	0x3d23076f	0.03980201
88	0xbd11f79e	-0.035636537
89	0x3d2d42c6	0.04230001
90	0x3d552205	0.052034397
91	0xbd2d549e	-0.042317025
92	0xbca28e12	-0.019843135
93	0x3c2a45e1	0.010392637
94	0x3d84f038	0.064911306
95	0x3d014a1b	0.031564813
96	0x3d7ed56c	0.062215254
97	0x3d6d1633	0.0578825
98	0xbd10c66d	-0.035345484
99	0x3caa5482	0.02079225
100	0x3cc09c99	0.023512172
101	0x3bbb1215	0.0057089427
102	0x3d296d47	0.04136398
103	0xbd681501	-0.056660656
104	0x3d909ced	0.07061181
105	0xbc8dbac8	-0.017300978
106	0x3c0a41d4	0.008438546
107	0xbd310507	-0.043217685
108	0xbacf3d1e	-0.0015811061
109	0x3d788c91	0.06068093
110	0x3d7dcd9d	0.061963666
111	0x3d9ecfcf	0.0775448
112	0x3baec4c0	0.005333513
113	0x3d74561d	0.059652437
114	0xbd440834	-0.047859386
115	0xbc95cdb0	-0.018286556
116	0xbc9d0dee	-0.019171681
117	0x3d5cfdd4	0.053953007
118	0x3c48ad54	0.012248356
119	0x3d47fade	0.04882323
120	0xbcfc764f	-0.030818133
121	0x3d8aed48	0.06783539
122	0x3ccd21d0	0.025040537
123	0x3d2a9b22	0.041651852
124	0x3d56b031	0.052414123
125	0xbd07b09e	-0.03312742
126	0xbce8ded0	-0.028426558
127	0x3b6cd79b	0.0036139253
128	0xbd818663	-0.0632446
129	0xbc1fae30	-0.009746119
130	0x3d849f6f	0.06475722
131	0xbc9d3cb8	-0.019193992
132	0xbd0b0e04	-0.033948913
133	0x3ccd7dbe	0.025084373
134	0xbb1da636	-0.0024055368
135	0x3d5ebf79	0.05438182
136	0xbcefad46	-0.029257428
137	0xbc23dc1a	-0.010001207
138	0xbcf7d563	-0.030253118
139	0x3d893c31	0.06700934
140	0xbb8b7dd3	-0.004256943
141	0x3ac7cc62	0.0015243406
142	0xbd1e743c	-0.03868507
143	0x3d3df60f	0.046377238
144	0x3c61cb9e	0.013781456
145	0x3d9bd10a	0.076082304
146	0xbd1750eb	-0.036942404
147	0x3d7c2bee	0.061565332
148	0xbd467b8c	-0.048457667
149	0x3d23ecf1	0.040020887
150	0x3d395140	0.0452435
151	0xbc8f437d	-0.017488236
152	0x3d94193c	0.072313756
153	0xbac4b548	-0.0015007639
154	0x3d3ec8c7	0.046578195
155	0x3cf8bf1d	0.030364567
156	0x3d85d74d	0.06535206
157	0xbc6948e3	-0.014238569
158	0x3cabe3a1	0.020982565
159	0x3cd3b7f2	0.025844548
160	0xbd2d6e9f	-0.042341825
161	0x3d172060	0.03689611
162	0x3d185eeb	0.037199896
163	0xbd4da188	-0.050202876
164	0x3d0aa63f	0.03384995
165	0x3d3847b3	0.044990253
166	0xbd3d5fb5	-0.04623385
167	0x3d116658	0.035497993
168	0x3d566832	0.052345462
169	0x3d131969	0.035912905
170	0x3be58ff8	0.007005688
171	0x3d25a4e8	0.04044047
172	0xbdf581c5	-0.11987642
173	0x3b9e93dc	0.0048394036
174	0xbb3c1445	-0.0028698605
175	0xbbb660ce	-0.0055657392
176	0x3d50270b	0.050818484
177	0x3c4bdd8d	0.012442959
178	0xbd2a0b93	-0.041514944
179	0xba167219	-0.0005739048
180	0x3d58238c	0.052768275
181	0xbd532a49	-0.051554
182	0x3d0746ff	0.03302669
183	0x3d391cc4	0.04519345
184	0x3cc11a42	0.023572091
185	0xbc2928f1	-0.010324703
186	0x3d1f0ea9	0.03883234
187	0x3d43bf56	0.047789894
188	0xbd14a7f3	-0.03629298
189	0xbd854197	-0.06506651
190	0x3cb9f190	0.022698194
191	0xbd489981	-0.048974518
192	0xbd5cb466	-0.05388298
193	0x3d71b838	0.059013575
194	0x3cfdc4fc	0.030977719
195	0x3cfb2440	0.030656934
196	0xbd5015c7	-0.05080202
197	0x3d19ae89	0.037519965
198	0x3d179937	0.03701135
199	0xbcb06ffa	-0.02153777
200	0x3b15e115	0.0022869755
201	0xbc8824c7	-0.0166191
202	0x3e0151ca	0.12628856
203	0xbc946d18	-0.018118426
204	0xbd5e6489	-0.054295097
205	0x3d4795b7	0.048726764
206	0xbd0b4694	-0.034002855
207	0x3d0f30ec	0.034958765
208	0x3db581fa	0.08862682
209	0x3c8a04af	0.016847936
210	0xbd3be994	-0.045877054
211	0x3d89a336	0.06720583
212	0xbd3cd809	-0.046104465
213	0x3d9de73d	0.07710121
214	0xbced9ca8	-0.029005364
215	0xbd84c798	-0.06483382
216	0x3dbb72ec	0.09152779
217	0x3da4700a	0.08029182
218	0x3d199ac9	0.03750113
219	0xbca7ccef	-0.020483462
220	0x3b7e5900	0.0038810372
221	0xbd2267a0	-0.039649606
222	0xbd7155ff	-0.058919903
223	0xbd16b5c5	-0.036794443
224	0xbc301901	-0.010748149
225	0x3d470dfc	0.04859732
226	0x3d06fb30	0.032954395
227	0xbce1c1b8	-0.027558193
228	0xbd87fad9	-0.06639642
229	0xbca4b235	-0.020104507
230	0x3b747802	0.0037302976
231	0x3bda4faa	0.0066623287
232	0x3d6e4483	0.058170807
233	0x3d6abe15	0.057310183
234	0x3d7f5d0f	0.062344607
235	0xbe3711e2	-0.17877916
236	0x3d99bf33	0.075071715
237	0x3ce00fef	0.027351348
238	0x3d98b3a7	0.07456141
239	0xbe23bbab	-0.15989558
240	0x3d08df2d	0.033415962
241	0x3d68980c	0.05678563
242	0x3c98af9b	0.018638423
243	0xbc79ef80	-0.015254855
244	0xbc8a4f08	-0.016883388
245	0x3c871b7d	0.0164926
246	0x3c0364f7	0.008019677
247	0xbd4f6ba0	-0.05063975
248	0x3d3d357e	0.046193592
249	0x3ddbd058	0.10733098
250	0xbd4a9826	-0.049461506
251	0x3ce1861f	0.027529774
252	0x3b61a772	0.003443208
253	0x3b3dcae6	0.0028960048
254	0xbcf4a978	-0.029865965
255	0x3d400f01	0.04688931

fc2.bias f4 [128]
0	0x3d9d3cfc	0.076776475
1	0x3d0a54ec	0.033772394
2	0x3d39be5e	0.045347564
3	0x3d27dc6b	0.04098169
4	0x3d2b226c	0.041780874
5	0x3a9a50b9	0.0011773325
6	0x3cbda4d4	0.023149885
7	0x3c874da0	0.016516507
8	0xbcf84193	-0.030304706
9	0xbc58f465	-0.013241862
10	0x3d86b0f8	0.06576723
11	0xbd8da2fb	-0.06915852
12	0xbcfc49d4	-0.030796923
13	0xbc4326b8	-0.011911087
14	0x3c7fc5b7	0.015611104
15	0xbd217d62	-0.039426215
16	0x3d591d27	0.053006317
17	0x3cbe63cb	0.023240944
18	0xbd555cf4	-0.0520906
19	0x3d176af2	0.036967225
20	0x3d71caa0	0.05903113
21	0xbd627b50	-0.05529338
22	0x3d603719	0.054740045
23	0x3c8a0cec	0.016851865
24	0xbd0d9522	-0.034566052
25	0xbc4d06b0	-0.012513801
26	0x3d256be8	0.04038611
27	0xbcb4645a	-0.022020508
28	0x3d0180c4	0.03161694
29	0x3d522c55	0.05131181
30	0x3d8d42e7	0.06897526
31	0x3d97470d	0.07386599
32	0xbd329f82	-0.04360915
33	0x3d880a9e	0.0664265
34	0x3d9cca12	0.07655729
35	0xbc8d4183	-0.017243152
36	0xbd285520	-0.041096807
37	0xbd0ce83d	-0.034401167
38	0x3b312fda	0.0027036578
39	0xbd4b88f7	-0.049691167
40	0xbcafcd98	-0.02146034
41	0x3c1ccd98	0.009570502
42	0x3d689f35	0.056792457
43	0xbd17da5a	-0.03707347
44	0xbd290837	-0.0412676
45	0x3cd3bec4	0.0258478
46	0xbcf169d0	-0.0294694
47	0xbbc4f038	-0.0060100816
48	0xbd63aa29	-0.0555822
49	0xbd0d448f	-0.03448921
50	0x3c605267	0.013691521
51	0x3d18fc29	0.037349854
52	0x3c605e0d	0.013694298
53	0xbd1977f9	-0.03746793
54	0x3cc82b92	0.024434838
55	0xbcc0c05b	-0.023529222
56	0xbd07d3bc	-0.03316091
57	0x3d83a233	0.064274214
58	0x3d08ad44	0.033368364
59	0x3c882659	0.016619848
60	0x3ca11f56	0.019668262
61	0x3da5cab9	0.08095307
62	0xbd2b3e52	-0.04180748
63	0x3d58e4eb	0.05295269
64	0x3caa1c37	0.020765407
65	0x3ae1d96b	0.0017230933
66	0x3cda72a5	0.026665995
67	0xbcaaf77e	-0.020869967
68	0x3d2eeeaa	0.042708077
69	0x3a7fcfdf	0.0009758453
70	0x3d4229e3	0.047403228
71	0x3d38ec9b	0.04514752
72	0x3c7381c0	0.014862478
73	0xbcf58b04	-0.029973514
74	0xbd524820	-0.051338315
75	0x3d5cbf62	0.053893454
76	0xbccc1d07	-0.024916185
77	0x3bbad9c4	0.005702229
78	0x3d39f8c0	0.045403242
79	0x3d6b5361	0.057452563
80	0x3d4f42be	0.05060076
81	0xbc07d51a	-0.008290553
82	0x3d5296fc	0.05141352
83	0x3d951b20	0.07280564
84	0x3d1cfe90	0.038328707
85	0xbd062d55	-0.032758076
86	0x3db61c57	0.08892124
87	0xbd09c0c4	-0.0336311
88	0xbd28a3d3	-0.04117186
89	0xbc926cd3	-0.017874157
90	0xbd0d0e94	-0.03443773
91	0x3d930ff0	0.07180774
92	0x3c1292a0	0.008946091
93	0xbbb1ee50	-0.0054300204
94	0x3d8f1796	0.069869205
95	0x3c31741c	0.010830905
96	0xbc262deb	-0.010142784
97	0xbd6685fd	-0.056280125
98	0x3d425f49	0.047454152
99	0xbcbc0f75	-0.02295659
100	0xbbb2c19f	-0.0054552103
101	0xbd248b2a	-0.04017178
102	0x3c64aa81	0.013956667
103	0xbd304410	-0.04303366
104	0xbd2bfffd	-0.041992176
105	0xbd0e0cc1	-0.03468013
106	0xbcf6c51d	-0.030123288
107	0xbc9edfcc	-0.019393824
108	0x3d975024	0.073883325
109	0x3c0ffecc	0.008788776
110	0xbd634346	-0.05548408
111	0x3d81db72	0.06340684
112	0xbc91e041	-0.017807128
113	0xbd0e0222	-0.034670003
114	0x3d8618df	0.065477125
115	0xbd0f276d	-0.03494971
116	0x3d3ea8a4	0.046547547
117	0x3bb396b4	0.0054806117
118	0x3d1398f6	0.036034547
119	0xbcd17e86	-0.025573026
120	0x3d03caf3	0.03217597
121	0x3c26c187	0.010177976
122	0x3b52da14	0.0032173442
123	0x3bf69160	0.0075246543
124	0x3d843c31	0.06456793
125	0x3ce6d226	0.028176378
126	0xbc96b2bf	-0.01839578
127	0x3b93f907	0.0045157704

fc3.weight f4 [64, 128]
0	0xbc6ed155	-0.014576276
1	0x3d855fbf	0.06512403
2	0x3d2ba406	0.04190447
3	0xbd9560e4	-0.07293871
4	0xbd4ba049	-0.049713407
5	0x3d4462b2	0.047945686
6	0x3d9d9eeb	0.07696327
7	0xbda71a12	-0.081592694
8	0xbd81a43e	-0.06330155
9	0xbd9da9cf	-0.07698404
10	0xbd396737	-0.04526445
11	0xbc9e0a70	-0.019292086
12	0x3cf4804e	0.029846337
13	0xbda7100f	-0.0815736
14	0xbc75997b	-0.014990206
15	0x3d1a8f17	0.037734117
16	0xbca3ee16	-0.02001099
17	0x3c5b4a89	0.01338447
18	0x3d9d7013	0.07687392
19	0xbd35d47c	-0.044392094
20	0xbccaa3bc	-0.024736278
21	0x3d66d5c8	0.05635622
22	0x3d96b4f6	0.07358734
23	0xbd7da63c	-0.06192611
24	0xbd4eff71	-0.050536577
25	0xbda49e30	-0.08037984
26	0xbcd10b2c	-0.025518022
27	0x3d9f947d	0.07791994
28	0xbd61c8b1	-0.055123035
29	0x3d26d550	0.040730774
30	0xbda9839c	-0.082770556
31	0xbdadfca2	-0.084954515
32	0x3c078b30	0.008272931
33	0x3bb0ff56	0.005401532
34	0xbcec3323	-0.028832978
35	0x3da3d973	0.080004595
36	0x3cb75f3b	0.022384277
37	0x3d7c29fc	0.061563477
38	0xbd0bf64a	-0.034170426
39	0x3d3c1071	0.045914117
40	0xbca12fc9	-0.019676106
41	0x3d35c7c8	0.04437998
42	0xbd792081	-0.060822014
43	0x3d898956	0.06715648
44	0x3cbc7a0a	0.023007412
45	0x3d5c644e	0.053806596
46	0xbd75cca8	-0.06000963
47	0xbc825020	-0.015907347
48	0x3d9ada64	0.07561186
49	0xbcede177	-0.029038174
50	0xbcad49d5	-0.02115337
51	0xbd523a33	-0.051325034
52	0xbd261b6b	-0.04055349
53	0xbdad63c9	-0.08466298
54	0x3cd3cc4c	0.025854252
55	0x3d994f7e	0.07485865
56	0xbd2ec5f9	-0.04266927
57	0x3da635ca	0.08115728
58	0x3d946fbf	0.072478764
59	0xbd2b6cc2	-0.041851766
60	0x3d0c3d2f	0.034238037
61	0xbd967b0b	-0.07347687
62	0xbd9c03e3	-0.07617929
63	0x3b863000	0.0040950775
64	0xbdaeb46f	-0.08530509
65	0xbdb381b0	-0.0876497
66	0xbdaa3688	-0.08311182
67	0x3cdd759c	0.02703362
68	0xbc90f271	-0.01769373
69	0xbd4e8758	-0.050422043
70	0x3c159a47	0.009131021
71	0xbd5e9c70	-0.05434841
72	0xbba4fe19	-0.0050351736
73	0xbc653a1a	-0.013990903
74	0x3d11c228	0.035585552
75	0x3c2e3618	0.010633014
76	0xbc267917	-0.010160706
77	0x3d4b5175	0.04963823
78	0x3ca63846	0.020290505
79	0x3c9b9c39	0.018995391
80	0x3db4887f	0.08815097
81	0xbd81b265	-0.06332854
82	0xbd5b94db	-0.053608757
83	0xbccf36cd	-0.025294686
84	0xbc116370	-0.008873805
85	0xbd440350	-0.04785472
86	0x3c296424	0.010338817
87	0xbd5d2f3a	-0.054000117
88	0xbcdea29e	-0.027177151
89	0xbd19f1a7	-0.037583973
90	0xbc920a30	-0.017827123
91	0xbb28b4b4	-0.0025742473
92	0xbd3cf130	-0.04612845
93	0x3d88b2a7	0.066747
94	0x3d9febfb	0.078086816
95	0xbcdd8b12	-0.027043853
96	0xbbfc12ca	-0.0076926695
97	0x3d94291f	0.07234406
98	0x3cb5b878	0.022182688
99	0xbd1de37b	-0.03854702
100	0xbd700c28	-0.058605343
101	0x3d614ffb	0.055007916
102	0xbb463309	-0.0030242822
103	0xbcffafb3	-0.03121171
104	0x3aeb56f9	0.0017954997
105	0x3d8f3045	0.069916286
106	0xbc13b48a	-0.009015212
107	0x3d024fe6	0.03181448
108	0x3d7372d6	0.059435688
109	0xbb8d939f	-0.0043205763
110	0xbaabd080	-0.0013108402
111	0x3c942e75	0.018088559
112	0xbd81010c	-0.06299028
113	0x3da9007d	0.08252046
114	0x3d80d497	0.06290548
115	0xbd3dc4ff	-0.04633045
116	0xbcb289a1	-0.021794142
117	0xbd9c8fd5	-0.07644621
118	0xbd05d99b	-0.032678228
119	0x3dae542d	0.08512149
120	0xbda95a23	-0.08269145
121	0x3bf65d6a	0.00751846
122	0xbbe6729a	-0.0070327045
123	0xbd7c464e	-0.061590485
124	0xbcf975e2	-0.030451719
125	0xbacb6fe5	-0.0015521018
126	0x3d929af2	0.0715846
127	0x3da0c9cc	0.0785099
128	0xbd0cfc26	-0.034420155
129	0x3d3717ba	0.04470036
130	0xbbdd9cd0	-0.0067630783
131	0x3d2f8c98	0.04285869
132	0x3d41c09e	0.047302835
133	0x3cef30b4	0.029198028
134	0xbd8a97f4	-0.06767264
135	0x3d711b7d	0.058864105
136	0xbd8e8676	-0.0695924
137	0xbda15c2e	-0.0787891
138	0x3d09a017	0.03359994
139	0xbc0423fc	-0.00806522
140	0x3cf19fc8	0.029495135
141	0x3cb0c058	0.021576092
142	0x3bf9b184	0.0076200385
143	0xbcc3b515	-0.023890058
144	0xbd90257f	-0.07038402
145	0xba5d0342	-0.00084309664
146	0x3d5f2789	0.054481063
147	0xbd499037	-0.0492098
148	0x3d0f9f9f	0.035064336
149	0x3cca02d0	0.024659544
150	0x3d821d48	0.06353241
151	0x3d7b7b3a	0.061396815
152	0x3da072ef	0.07834422
153	0x3d8f888d	0.07008467
154	0xba98f640	-0.0011670068
155	0xbdae0793	-0.084975384
156	0xbcde28a0	-0.02711898
157	0xbdb5e892	-0.0888225
158	0x3d60d860	0.05489385
159	0xbd5a6a5d	-0.053324092
160	0x3cfc93a8	0.030832127
161	0x3d6ed72c	0.058310673
162	0xb988b0c2	-0.00026071636
163	0x3d00ca04	0.031442657
164	0x3d9f434d	0.077765085
165	0x3d6d0d8a	0.05787424
166	0x3d16f8bb	0.0368583
167	0x3d35735e	0.044299476
168	0xbc85cb6f	-0.016332356
169	0xbd7687fa	-0.06018827
170	0x3da0d6e2	0.07853486
171	0xbd84fb99	-0.06493301
172	0xbd568d86	-0.05238106
173	0x3d6c13ba	0.057636
174	0xbd0d165f	-0.034445163
175	0x3baec303	0.005333306
176	0xbcecbc56	-0.0288984
177	0x3d8a47a8	0.067519486
178	0xbc7d3b4e	-0.015456034
179	0x3cfe9e94	0.031081475
180	0x3d7828f1	0.06058592
181	0x3d09843c	0.033573374
182	0x3d2ebb42	0.04265905
183	0xbbf1c439	-0.007378128
184	0xbcd132ef	-0.025536982
185	0xbc970ca7	-0.01843865
186	0x3d05e34a	0.032687463
187	0x3d06bfcb	0.03289775
188	0xbd2ab0c5	-0.041672487
189	0xbda062a8	-0.07831317
190	0x3d946971	0.07246674
191	0xbc32c3f5	-0.010910978
192	0xbcddc51a	-0.027071524
193	0x3bc1a6c6	0.0059097735
194	0x3c3079c8	0.010771222
195	0xbdab90b4	-0.08377209
196	0x3cf261a6	0.029587578
197	0xbd333e87	-0.043760803
198	0x3d989927	0.074510865
199	0xbda1a473	-0.07892694
200	0x3d25ae6e	0.040449552
201	0xbc363403	-0.011120799
202	0x3dabcd27	0.08388739
203	0xbd575734	-0.052573398
204	0xbd070f21	-0.032973412
205	0x3b2203d4	0.002472152
206	0x3d0b239f	0.033969518
207	0x3b9eac47	0.0048423144
208	0x3db2fcbb	0.08739611
209	0xbd4ce998	-0.05002746
210	0xbd3a2424	-0.045444623
211	0xbd500675	-0.050787408
212	0xbd761545	-0.060078878
213	0x3d1d7307	0.038439777
214	0x3d4b3c4a	0.049618043
215	0x3ac2c5ac	0.0014859936
216	0xbd8cf1be	-0.06882046
217	0xbcca3b50	-0.024686486
218	0x3cb26a1c	0.021779113
219	0xbd528d40	-0.051404238
220	0xbd37fbeb	-0.044917982
221	0x3d898fcb	0.067168795
222	0x3d2bdad3	0.041956734
223	0xbc93d055	-0.018043676
224	0x3cdd7df6	0.027037602
225	0xbd69e4bc	-0.057102904
226	0xbdae821d	-0.08520911
227	0x3c8868bc	0.016651504
228	0xbcf03221	-0.029320778
229	0x3c82fc47	0.015989436
230	0x3ad4fc7b	0.0016249561
231	0xbd463fcd	-0.04840069
232	0x3d4085cd	0.047002602
233	0xbd8f6aab	-0.07002767
234	0xbb984f78	-0.0046481453
235	0x3c24f035	0.010067035
236	0xbca47979	-0.020077454
237	0x3d80aa9a	0.0628254
238	0x3c4f0350	0.012635067
239	0x3d5490c5	0.051895875
240	0x3ca68e12	0.020331416
241	0x3d91a361	0.0711124
242	0xbd3d13ec	-0.046161577
243	0xbd7e6d2f	-0.062115844
244	0xbd12fa6c	-0.035883352
245	0x3cd9330d	0.0265136
246	0xbbc3d391	-0.0059761484
247	0x3ce5ac58	0.028036281
248	0x3c9b7574	0.018976904
249	0x3d311f82	0.04324294
250	0xbc502f1e	-0.012706546
251	0x3d382076	0.044952832
252	0x3d50e006	0.050994895
253	0xbb8dd835	-0.0043287524
254	0xbd507bba	-0.050899245
255	0x3dad3b38	0.08458561

fc3.bias f4 [64]
0	0x3d044f79	0.032302354
1	0x3d87eaad	0.06636558
2	0x3d44daf7	0.048060384
3	0xbd88db89	-0.06682498
4	0xbd7c744c	-0.061634347
5	0x3cd0a265	0.02546806
6	0x3da43d05	0.08019451
7	0x3cbd1f75	0.023086289
8	0x3d841cc7	0.06450801
9	0x3d8f4161	0.06994892
10	0xbd490084	-0.049072757
11	0x3d25bb9d	0.040462125
12	0x3daad1ca	0.08340795
13	0xbd464806	-0.04840853
14	0x3ce884f4	0.02838371
15	0x3d3b3d72	0.045712896
16	0xbdadc2cb	-0.084844194
17	0x3d58b794	0.05290945
18	0xbd099fd2	-0.033599682
19	0xbcf72873	-0.030170655
20	0xbdb1d378	-0.086829126
21	0x3c01a040	0.007911742
22	0x3de57de1	0.1120565
23	0xbd98bf89	-0.074584074
24	0x3d271938	0.040795535
25	0xbc4c8620	-0.01248315
26	0x3ca56d87	0.020193828
27	0xbd5e3396	-0.054248415
28	0xbd70c24f	-0.058779057
29	0xbd2ab1ee	-0.041673593
30	0xbcf0f138	-0.029411897
31	0xbdaab8d8	-0.083360374
32	0xbda5e6c4	-0.08100656
33	0x3daf1557	0.08548992
34	0xbdc72264	-0.09723356
35	0xbd39aa5d	-0.045328487
36	0x3dd71e75	0.10503856
37	0xbd8ec29c	-0.069707125
38	0x3dd001b3	0.10156574
39	0x3be5683a	0.00700095
40	0x3d455f83	0.04818679
41	0xbdb8aa16	-0.09016816
42	0xbd0511a6	-0.032487534
43	0xbd8a5cf4	-0.06756011
44	0x3bd63acd	0.0065377713
45	0x3c1d04bf	0.009583651
46	0x3d838739	0.06422276
47	0xbccfff19	-0.025390195
48	0x3d578cdb	0.052624565
49	0xbd8d6dfc	-0.069057435
50	0x3d779225	0.06044211
51	0x3d464c12	0.04841239
52	0x3d0e1796	0.034690462
53	0x3c642893	0.013925689
54	0x3dc9846e	0.09839712
55	0xbd4a870f	-0.04944521
56	0x3da871fe	0.08224867
57	0x3d1afdc8	0.03783968
58	0x3d14f2b7	0.036364283
59	0xbc358748	-0.011079617
60	0x3dbaaf2c	0.09115443
61	0xbbb1fa23	-0.00543143
62	0x3bf35528	0.007425923
63	0x3cd70d8d	0.026251579

fc4.weight f4 [32, 64]
0	0x3b6c9500	0.0036099553
1	0xbd65ae5a	-0.056074478
2	0x3d927145	0.07150511
3	0xbdc60ff6	-0.09671013
4	0xbe056fb7	-0.13030897
5	0x3c3782a2	0.011200579
6	0x3dc8cd90	0.09804833
7	0xbdba3c6b	-0.09093555
8	0xbde3ac78	-0.1111688
9	0xbd0982fd	-0.033572186
10	0xbdf87958	-0.121325195
11	0xbdebe3d5	-0.11518065
12	0xbd2cd818	-0.04219827
13	0x3d35a404	0.04434587
14	0x3cb78be0	0.022405565
15	0xbddef61a	-0.10886784
16	0x3cd4f178	0.025994048
17	0xbdbb5eb6	-0.09148924
18	0xbd935133	-0.07193222
19	0xbc4e8e2b	-0.012607138
20	0x3b9938c0	0.0046759546
21	0x3dd1ab84	0.10237792
22	0x3d491165	0.049088854
23	0xbdcbc0b4	-0.099488646
24	0x3dc07b17	0.093984775
25	0xbd9e7321	-0.07736803
26	0x3b83886a	0.0040140646
27	0xbd916cce	-0.07100831
28	0xbdcbcef8	-0.099515855
29	0x3dae09d0	0.08497965
30	0xbd8c7578	-0.06858343
31	0x3da1c770	0.07899368
32	0xbc8e8820	-0.017398894
33	0x3c4d319a	0.012524033
34	0xbe014a19	-0.12625922
35	0x3dc68efc	0.09695241
36	0xbc97630b	-0.018479845
37	0xbd2927a1	-0.04129756
38	0xbdf34d2e	-0.11879955
39	0xbd37e3ac	-0.04489486
40	0x3dca3eba	0.098752454
41	0xbceb2d81	-0.028708221
42	0xbd62fe38	-0.055418223
43	0x3d48cda1	0.049024228
44	0xbcd8a4b5	-0.026445726
45	0xbd88218e	-0.06647025
46	0xbdc92d94	-0.098231465
47	0x3dde297a	0.10847755
48	0x3c32c4d0	0.010911182
49	0xbdd0969e	-0.10184978
50	0xbdf12bfe	-0.11775969
51	0xbd08f01e	-0.03343212
52	0xbdd9ef98	-0.10641402
53	0x3ce830b1	0.02834353
54	0xbda13131	-0.07870711
55	0x3dc7dd56	0.09759013
56	0xbd8a1520	-0.067423105
57	0x3d76195b	0.060082775
58	0x3dc5e1f4	0.09662238
59	0x3dbd05a7	0.09229594
60	0x3d24f352	0.04027111
61	0xbdf792a2	-0.12088515
62	0x3de3b019	0.11117572
63	0x3daea3a9	0.085273094
64	0xbde627ac	-0.112380356
65	0xbda7802e	-0.08178745
66	0x3d1a9df9	0.03774831
67	0xbe14d370	-0.14533782
68	0xbdfb574a	-0.122725084
69	0x3b55b2b0	0.0032607727
70	0xbc89c85b	-0.01681917
71	0xbd8f35a0	-0.0699265
72	0x3d9930f6	0.07480042
73	0xbc09b19c	-0.008404162
74	0xbd2b869c	-0.04187642
75	0x3d7b52a0	0.061358094
76	0xbd8e91c3	-0.069613956
77	0xbc2fd750	-0.010732487
78	0xbd74df20	-0.0597831
79	0xbbe1ad40	-0.006887108
80	0xbd7e874c	-0.062140748
81	0xbda1f0de	-0.0790727
82	0xbd997de0	-0.07494712
83	0x3d6083d1	0.05481321
84	0x3dbd3bbc	0.09239909
85	0xbdc0969c	-0.094037265
86	0xbd6d6c1c	-0.05796443
87	0x3d34e3fb	0.04416273
88	0x3d1dea2b	0.038553398
89	0x3d1b9c90	0.037991107
90	0x3d74a99a	0.059732057
91	0x3e0f59a2	0.13999036
92	0x3dd2e3a0	0.10297322
93	0xbe0b65cf	-0.13613056
94	0xbc5005b0	-0.0126966685
95	0x3d954d88	0.072901785
96	0xbdb6acfa	-0.089197114
97	0x3d6fa02e	0.05850237
98	0x3cb85fbe	0.022506591
99	0xbdc8b455	-0.098000206
100	0x3bc04d42	0.005868585
101	0xbc9802a9	-0.018555956
102	0x3d907272	0.07053079
103	0x3da25bb5	0.07927648
104	0x3dd1fb9b	0.10253068
105	0x3cc4e845	0.024036536
106	0xbd9211fb	-0.07132336
107	0x3df6bfa1	0.12048269
108	0x3d822a2b	0.06355699
109	0xbdbce05c	-0.09222481
110	0xbd03d6f0	-0.032187402
111	0x3d0a3db8	0.033750266
112	0xbd970e9c	-0.073758334
113	0x3df3764f	0.118878
114	0xbb989c9f	-0.0046573426
115	0x3b80eca0	0.003934458
116	0xbd99efb6	-0.07516424
117	0xbce73ae8	-0.02822633
118	0x3c808e16	0.015692752
119	0x3d07c8bc	0.03315042
120	0xbc9d6d2a	-0.019217093
121	0xbcc5324a	-0.024071831
122	0xbcb823a0	-0.022477925
123	0xbcbc284f	-0.02296844
124	0xbd60d256	-0.054888092
125	0xbd44fba9	-0.048091564
126	0x3dda1ff9	0.106506296
127	0xbda1e3bd	-0.07904766
128	0x39bce37c	0.00036027643
129	0xbdf9bf12	-0.12194647
130	0x3c4e12a6	0.012577688
131	0xbde6df4a	-0.11273058
132	0x3d8aa15d	0.06769059
133	0xbdb42259	-0.08795614
134	0xbd17ef19	-0.037093256
135	0xbd224987	-0.039620902
136	0xbd962f14	-0.07333198
137	0xbdeaaa69	-0.114582844
138	0x3dea79ee	0.114490375
139	0x3dae7d49	0.0851999
140	0xbcee9228	-0.029122427
141	0xbbb04260	-0.0053790063
142	0xbdec71b6	-0.11545126
143	0xbcd7043d	-0.026247138
144	0x3c660980	0.014040351
145	0xbddc88be	-0.10768269
146	0x3d665ec4	0.05624272
147	0xbcfb07b8	-0.030643329
148	0xbda2c946	-0.07948546
149	0xbdf3dcc2	-0.119073406
150	0xba32f71e	-0.00068269845
151	0x3d8d6a26	0.06905012
152	0x3e07cee6	0.13262519
153	0x3db5d7c5	0.088790454
154	0xbd9a0d85	-0.0752211
155	0x3d8314ae	0.06400429
156	0x3dbc5e54	0.09197679
157	0xbd4f57c9	-0.050620828
158	0x3df3ebd1	0.11910213
159	0x3da2c9fe	0.07948683
160	0xbc1a4060	-0.009414762
161	0x3cc95312	0.024575744
162	0xbe1351bf	-0.14386652
163	0xbd6ac664	-0.057318106
164	0x3da6d7c7	0.08146625
165	0xbcacdddd	-0.021101886
166	0xbc8aab20	-0.016927302
167	0xbdeb358c	-0.11484823
168	0x3dde185e	0.108444914
169	0xbe1164c0	-0.1419859
170	0xbdb380e6	-0.0876482
171	0x3da4aac4	0.080403835
172	0xbdae0397	-0.084967785
173	0x3df1b706	0.11802487
174	0x3d93f91d	0.07225249
175	0x3ccd6e9c	0.025077157
176	0xbc460fda	-0.01208874
177	0x3d678afb	0.056529026
178	0x3d9d546c	0.07682118
179	0x3d4c561b	0.049886804
180	0x3d970794	0.07374492
181	0xbde9a69a	-0.1140873
182	0x3e018671	0.12648942
183	0xbca14dc0	-0.019690394
184	0xbdd94528	-0.10608894
185	0xbe0e56eb	-0.13900344
186	0x3d71bc33	0.05901737
187	0x3d6034aa	0.054737724
188	0xbdbed462	-0.093178526
189	0x3e0920d5	0.1339143
190	0xbdb84913	-0.08998313
191	0xbd7f0add	-0.06226622
192	0x3c8fa09f	0.017532645
193	0x3db0cbbb	0.086326085
194	0x3dc323fc	0.09528348
195	0x3bb78c57	0.0056014466
196	0x3da2ae8a	0.07943447
197	0xbd83f026	-0.06442289
198	0x3d7a5930	0.061120212
199	0xbac29513	-0.0014845453
200	0x3da1775d	0.07884095
201	0x3dee610f	0.11639606
202	0xbbb0230c	-0.0053752717
203	0x3ca74e70	0.020423144
204	0xbd1c04fe	-0.0380907
205	0x3dc1dafc	0.09465596
206	0x3d6abf1c	0.057311162
207	0x3d8ea3a1	0.069648035
208	0x3de45088	0.111481726
209	0x3d8c021d	0.068363406
210	0xbda41e98	-0.08013648
211	0xbd37499a	-0.044747926
212	0x3d0accf9	0.033886883
213	0xbd2320e8	-0.039826304
214	0x3d850086	0.064942405
215	0xbd7037ea	-0.058647074
216	0xbe058deb	-0.13042419
217	0x3dd8cc13	0.10585799
218	0xbdb33a55	-0.0875136
219	0xbd059dba	-0.032621123
220	0xbe1b1d17	-0.15147816
221	0x3d0d84f3	0.03455062
222	0xbd762e31	-0.060102645
223	0xbd7f8a10	-0.062387526
224	0xbd60e96c	-0.05491011
225	0xbe3abeee	-0.18236896
226	0x3d927a34	0.07152215
227	0x3dcff61a	0.10154362
228	0xbd603430	-0.05473727
229	0x3cf19bcc	0.029493235
230	0xbc270d36	-0.010196021
231	0xbc06b7f3	-0.008222568
232	0x3d0cbede	0.034361713
233	0x3e168464	0.1469894
234	0x3d0f2a9b	0.03495274
235	0xbd5e0001	-0.054199222
236	0xbae9b235	-0.0017829599
237	0xbc038482	-0.008027198
238	0x3dcdf5bf	0.10056638
239	0xbcf9e22b	-0.030503353
240	0x3d781ab8	0.060572356
241	0xbdcf1bf7	-0.10112756
242	0xbe18f069	-0.14935459
243	0x3da24636	0.07923548
244	0x3dc9bbac	0.09850249
245	0x3ddfab1b	0.10921308
246	0x3c90ce09	0.01767637
247	0x3cf30e80	0.02967
248	0x3de8dcc3	0.11370232
249	0x3d281483	0.041035186
250	0x3e0da815	0.1383365
251	0xbdc09fdb	-0.0940549
252	0x3d573ba4	0.052547112
253	0xbdb0f73a	-0.08640905
254	0xbdde13ed	-0.10843644
255	0xbde6a395	-0.112616695

fc4.bias f4 [32]
0	0xbd9b5f48	-0.07586533
1	0xbdc25745	-0.094893016
2	0x3d2e0117	0.042481508
3	0x3d6afc09	0.057369266
4	0x3d723032	0.059127994
5	0x3dc68ca7	0.09694796
6	0x3dc4d6ef	0.09611308
7	0xbd5b4409	-0.05353168
8	0x3d0cbaac	0.03435771
9	0x3c6bc970	0.014391288
10	0x3dfffe50	0.12499678
11	0x3db5cb5e	0.0887668
12	0x3dfe53bc	0.12418315
13	0xbd91a951	-0.07112373
14	0x3d3adcd0	0.04562074
15	0x3dab5429	0.08365662
16	0xbdb4e68d	-0.088330366
17	0xbd9f358a	-0.07773884
18	0x3d0b973a	0.034079768
19	0x3d9c1434	0.07621041
20	0xbccc8c98	-0.024969384
21	0xbdaa214d	-0.08307133
22	0x38c3c3db	9.3348055e-05
23	0x3e05ffbf	0.1308584
24	0xbd6bbf3b	-0.05755542
25	0xbdd6de68	-0.104916394
26	0x3dccfac9	0.10008771
27	0xbd217b54	-0.039424255
28	0xbcfe3c34	-0.031034566
29	0xbcff49f7	-0.031163199
30	0x3dd28504	0.10279277
31	0x3cae7f63	0.021300977

fc5.weight f4 [1, 32]
0	0xbe288ac1	-0.1645918
1	0xbde34ad3	-0.11098256
2	0xbe3ceaa4	-0.18448883
3	0x3e091f20	0.1339078
4	0x3ddb6244	0.10712102
5	0x3d9479c5	0.07249788
6	0xbcfb9ced	-0.030714476
7	0xbd6b1b04	-0.05739881
8	0xbdff7b4e	-0.124746904
9	0xbe0c3c89	-0.13694967
10	0xbe31a8b8	-0.17349517
11	0xbe3bc947	-0.183385
12	0xbdc2de9d	-0.09515116
13	0xbd8b90a8	-0.068147
14	0x3dfa7b48	0.12230545
15	0xbe3f1b9f	-0.1866288
16	0x3daf38f2	0.08555783
17	0x3e02988b	0.12753503
18	0x3de25739	0.11051793
19	0xbde9acc5	-0.11409906
20	0xbd86c9d7	-0.06581467
21	0x3e53bd66	0.20677719
22	0x3d9698c6	0.07353358
23	0x3d928e23	0.07156017
24	0x3e2c5923	0.16830878
25	0xbd8680f6	-0.06567566
26	0x3d5bfaf0	0.05370611
27	0x3e1dc369	0.15406574
28	0x3d50693f	0.05088162
29	0xbe2db0bf	-0.16961955
30	0x3d462d18	0.04838285
31	0xbe234083	-0.15942578
