vehicle_distance.pth (torch, 179443 bytes, 9 tensors)

fc1.weight f4 [256, 2]
000000 2b d8 0d bf 6b 7f 15 bf 5d 7b 0f 3f 5b 98 b4 3e
       -0.5540797 -0.5839755 0.5604761 0.35272488
000010 6d 0e 0b 3f db 57 dc be 9c 6b db be 74 62 a4 bd
       0.54318887 -0.43035778 -0.42855537 -0.08026591
000020 9c a0 09 3f d3 4f 0a be b0 53 40 3e 98 ba f4 3e
       0.53760695 -0.13507013 0.18781924 0.4779861
000030 56 66 69 ba 6b 42 47 3e 7a 4d ec 3e 97 54 64 be
       -0.0008903494 0.1945893 0.4615286 -0.22297893
000040 47 6c a9 3d bc 38 44 3e 70 16 8f 3d 39 42 82 3e
       0.082726054 0.19162267 0.069867015 0.2544115
000050 cb f8 88 be a5 18 17 bf a6 0e c0 bc 9d 51 5a 3e
       -0.26752314 -0.5902198 -0.023444485 0.21320195
000060 0a 98 27 bf 69 ee 04 3e 91 fa 9e be 6b e6 a1 3e
       -0.6546637 0.12981571 -0.31050542 0.31621107
000070 60 9c 86 be 65 f6 01 3f a5 24 29 bf 3c 39 dc 3e
       -0.2629118 0.50766593 -0.6607154 0.43012416
000080 a5 cb 10 3f c1 f0 b3 3d cf db 19 bf 62 20 0b 3e
       0.56560737 0.087861545 -0.60101026 0.13586572
000090 60 14 9b 3c 00 1c 70 bc 91 6e e1 3e 2f 8e 01 bf
       0.018930614 -0.014655113 0.44029668 -0.5060758
0000a0 0e ec 5b be e1 a7 e7 3d fa d6 01 3f 1a bf 0c bf
       -0.21476766 0.11311317 0.50718653 -0.549791
0000b0 d1 c3 d1 3d 90 b4 06 bf 59 ae 37 bf 1d 35 ee be
       0.10242427 -0.52619267 -0.7175041 -0.46524897
0000c0 53 34 9a 3e d3 3f 1d bf a8 b8 fa bd 30 4a cf 3c
       0.30118045 -0.61425513 -0.12242252 0.02530393
0000d0 6d 30 16 be 3f de ae 3e 21 6a fe 3e c1 67 88 3e
       -0.1466691 0.34153935 0.49690345 0.26641658
0000e0 94 f7 06 bf 03 43 24 be d1 12 d3 be fd 15 6b be
       -0.52721524 -0.16041188 -0.41225293 -0.22957607
0000f0 d0 67 25 3f d9 84 38 3e 96 ad 4f 3e ed 13 c7 3e
       0.6461153 0.18019427 0.20281062 0.3888239
000100 84 40 7c be 31 2a a3 be 43 74 bc 3d 41 0d 81 3e
       -0.24633986 -0.31868127 0.09201863 0.25205424
000110 74 a4 0d 3f db 58 15 3f 60 e7 88 3c 67 e2 de be
       0.5532906 0.5833871 0.01671189 -0.43532106
000120 97 1a 38 3f 6a ad 0a bf 43 a2 92 be 3f 05 df be
       0.7191557 -0.5417086 -0.2863942 -0.4355869
000130 32 c8 12 3f a7 e3 ec be f8 77 88 3d 97 e4 ad 3e
       0.57336724 -0.46267435 0.06663507 0.33963463
000140 2b e7 86 3e 8b 54 d5 be 7b db 3d be b8 82 cb 3e
       0.26348242 -0.41666064 -0.18540756 0.39748168
000150 3e f5 a0 3d bb 59 24 bf 77 54 68 be 59 c3 11 bf
       0.07859276 -0.6419942 -0.22688471 -0.569387
000160 8c f0 f3 be 2c f0 01 bf 86 d2 0c 3f 5f c1 17 be
       -0.4764446 -0.507571 0.55008733 -0.14819859
000170 3d 00 f5 3d 56 6b bb be dd b9 a4 3e f9 91 08 3d
       0.11962936 -0.36605328 0.32173052 0.033342335
000180 18 ed 13 3e 89 42 05 bf 16 1c 1c 3f a0 d8 a7 be
       0.14445913 -0.5205465 0.60980356 -0.3278246
000190 e6 5a d9 3e f7 c6 03 3f 6f 18 d2 bc 77 f7 ca 3e
       0.42452163 0.5147547 -0.025646416 0.39641926
0001a0 2b 26 2c 3f 10 54 12 3f ce 83 ff 3e 41 fc 1c 3f
       0.6724574 0.5715952 0.49905246 0.6132241
0001b0 ab 1c 84 3e 1c fc 86 be 01 93 99 be c0 e6 08 3f
       0.25803122 -0.2636422 -0.29994968 0.53477097
0001c0 0b be a7 be 4e ad 02 bf 70 0c 1f 3d 18 fb 86 be
       -0.3276218 -0.5104569 0.03883022 -0.26363444
0001d0 57 c6 bd 3e 4b 11 8e bd 3c 57 0f be ce 26 9d be
       0.37065384 -0.06936892 -0.13998121 -0.30693668
0001e0 51 37 0e bf 8c be 45 3e a8 8e 33 bf 82 7c 02 3f
       -0.55553156 0.19310969 -0.7013955 0.50971234
0001f0 f1 e6 0d bf 18 b2 90 3e 95 d2 9e 3d 24 4a 1c 3f
       -0.55430514 0.28260875 0.07755009 0.6105063
000200 81 fb ac 3e 93 8b 43 bc 83 a2 6a be 9b 76 61 3e
       0.33785632 -0.011935133 -0.22913556 0.220179
000210 39 c1 1e 3f f7 fe 59 bd 13 d6 14 bf f7 a3 92 3e
       0.62013584 -0.05322167 -0.5813915 0.2864072
000220 67 66 33 bf e4 bf a7 3e 47 37 2c bf eb f4 87 3e
       -0.7007813 0.32763588 -0.67271847 0.26554045
000230 16 b5 13 3f 12 85 0c bf ea 44 97 3e 6c 39 04 bf
       0.5769819 -0.5489055 0.29544765 -0.5165012
000240 05 c1 93 3e 80 85 fc be fe 4f 13 3e 47 27 1f 3f
       0.288582 -0.49320602 0.14385983 0.6216931
000250 34 f6 cd 3d 26 1d cd 3e 5f 01 cb 3d 15 7b c4 3e
       0.10056725 0.400613 0.09912371 0.38375154
000260 08 d9 8b bc 3c 95 11 3f ab 3a 90 be 23 ca d4 3e
       -0.017071262 0.5686834 -0.2816976 0.41560468
000270 ac 65 90 be 71 c1 fc be d9 0a 03 3f 73 84 0c bf
       -0.2820257 -0.49366334 0.5118843 -0.548896
000280 ec c6 10 bf fa 87 bf be 6a 9d cd be 81 cb 67 3d
       -0.5655353 -0.3740843 -0.4015916 0.05659056
000290 05 a5 ae 3e f6 07 5d 3e 9f 65 e5 3c d0 8d de be
       0.34110275 0.21585068 0.028002558 -0.4346757
0002a0 b2 6b 1e 3f 9e b9 c1 be b8 c2 16 be 66 68 78 3d
       0.6188308 -0.37836927 -0.14722717 0.060646437
0002b0 e6 e5 f1 3e 81 22 fd bd 4d 54 09 3e a3 2e a1 bd
       0.4724571 -0.12360097 0.13411064 -0.078702234
0002c0 f7 80 ec 3e 7c 12 f3 3e 20 ee 3b bd 80 f2 01 bf
       0.46192142 0.4747504 -0.04588139 -0.5076065
0002d0 b1 71 4a bf 7d 11 0a 3f 46 a4 69 3e fb 7f 5e be
       -0.7907973 0.53932935 0.22816572 -0.21728508
0002e0 33 60 31 bf 32 de 96 be 2e 29 c6 be 7a f6 7c 3e
       -0.69287413 -0.29466397 -0.38703293 0.24703398
0002f0 e5 ff e3 be 7b cb bd be de 8f 0a 3e eb b6 1b 3f
       -0.4453117 -0.37069306 0.13531443 0.60825986
000300 c8 c4 88 be 3d 61 ce be d8 40 ce bd 18 e3 2c be
       -0.26712632 -0.40308562 -0.10070962 -0.16883504
000310 d8 48 ec 3d 78 35 c0 bd a1 64 10 3f a4 ff d8 be
       0.11537331 -0.09385198 0.5640355 -0.42382538
000320 78 ef 20 3f 12 77 0f 3f 84 65 91 3e 79 ca 0d be
       0.628654 0.5604106 0.28397763 -0.13846768
000330 40 ca eb 3d da dd a5 3e 0c 4e a5 3d a4 6f c6 be
       0.115131855 0.32395822 0.08071527 -0.3875705
000340 3f fd 2b 3e 0b 6a 2a bf 0d d1 2e 3e bc 40 b7 3e
       0.16795824 -0.6656806 0.17071934 0.35791576
000350 20 8c 31 3f 27 67 d4 bd 68 98 34 bf 75 21 08 3f
       0.6935444 -0.10371237 -0.70545053 0.5317605
000360 f5 d3 bd 3e 62 71 09 be 5e bd 6c 3d 96 6b 09 3f
       0.37075773 -0.13422158 0.057797782 0.5367979
000370 c3 15 65 3e 70 36 f8 be 6d 0b 06 bf 4d 59 bf be
       0.22371583 -0.48479033 -0.52361184 -0.3737282
000380 78 1e e9 bc 7e 0a 76 3e 1c fc fd 3e d0 6d 5d be
       -0.028456911 0.2402744 0.49606407 -0.21623921
000390 5b 57 92 be 0b b7 f4 3e c8 34 34 bf e7 68 81 bb
       -0.28582272 0.477959 -0.7039304 -0.003949273
0003a0 90 88 1d bf d8 7c f8 3e a1 ba 41 be 99 18 0c 3d
       -0.615365 0.48532748 -0.1891885 0.034203146
0003b0 1d 4f c3 3c 12 bd 1f 3f 99 8c 42 be d0 6c c3 3e
       0.023841435 0.62397873 -0.18998946 0.38168955
0003c0 dc 94 fa 3b da 46 8e be 27 33 d0 3e e2 6b 15 3f
       0.00764714 -0.2778843 0.40664026 0.5836774
0003d0 1a 4e 0b 3f e9 64 f2 bd 42 b6 21 3f 69 08 99 bd
       0.5441605 -0.11835653 0.6316873 -0.07472307
0003e0 ed 44 36 be 8f c3 2e 3f 2e 4c 1d 3f c1 a1 0f bd
       -0.1779973 0.6826715 0.61444366 -0.03506637
0003f0 82 87 04 3d 6c 61 dc be dd 35 fc 3e 80 d3 30 3f
       0.032355793 -0.43043077 0.49259844 0.69072723

fc1.bias f4 [256]
000000 cd db bb be 1d 46 9a 3e 2c 1d 1e bf 7b 48 2b bc
       -0.36691132 0.30131617 -0.6176326 -0.010454292
000010 cd 21 15 bf 6b 2f 50 be d2 dd 47 3e 08 b1 90 3e
       -0.582547 -0.20330589 0.19518211 0.28260064
000020 72 b0 de be a2 14 1b bf 14 7a fc 3d 8a 63 21 be
       -0.43493992 -0.6057836 0.12327972 -0.15760627
000030 d4 98 eb 3e 57 e0 d7 3e 64 ce ce bc 73 cf d6 be
       0.46015036 0.42163345 -0.0252449 -0.41955146
000040 1d fd 2e 3f f4 37 32 3f 17 57 9b be 4b 99 43 bc
       0.6835497 0.6961663 -0.30339882 -0.011938403
000050 62 c9 e2 3e 90 ad 38 be a4 e0 e2 3e fa e0 b9 be
       0.44294268 -0.18034959 0.44312012 -0.36304456
000060 d2 9d 9b be 38 bf 28 bd 34 82 13 bf 35 d3 34 be
       -0.30393845 -0.041197985 -0.5762055 -0.17658694
000070 03 c1 1b 3f ab a4 22 3f ac d2 3a bf ac d7 14 bf
       0.6084139 0.63532513 -0.7297771 -0.5814159
000080 6f 4a 75 be 10 f3 25 bf 22 3b 52 3e 19 c8 1c bf
       -0.23954175 -0.6482401 0.2053037 -0.61242825
000090 40 fd 79 3e 03 e1 22 3f a8 77 2d 3f 24 5e 98 3e
       0.24413013 0.6362459 0.67760706 0.29759324
0000a0 32 41 f2 3e fd 38 a5 be cc 0a 0b be 63 ba d3 3e
       0.47315365 -0.3227004 -0.13578337 0.4135314
0000b0 f3 9d da 3e 1b 2a 6d 3e fc 40 5a 3e fc 4a 8f 3e
       0.4269863 0.23160593 0.21313852 0.27986896
0000c0 b7 cc 16 3f 81 8b 14 3f e6 20 28 3e e0 3e 28 bf
       0.5890612 0.58025366 0.164188 -0.6572094
0000d0 3d 17 f2 be 8b 41 66 3e 1c b7 b5 be 61 da 06 be
       -0.47283354 0.2248594 -0.35491264 -0.13169242
0000e0 c2 6f 0b bf 86 0d bd be 20 29 49 be ff d8 2a bf
       -0.54467404 -0.3692438 -0.19644594 -0.6673736
0000f0 a9 1a 8a 3e 19 db 86 3d 8d 05 fd be f3 7d 14 be
       0.26973465 0.06584758 -0.49418297 -0.14501171
000100 5c ca d4 be eb 40 39 3f b1 a6 fd be 0e 95 b2 be
       -0.41560638 0.7236468 -0.49541238 -0.34879345
000110 da c6 41 3d 9b 47 ef be c3 9a 0b 3f a3 b5 31 bf
       0.04730878 -0.46734318 0.5453302 -0.6941778
000120 13 3c a6 3e 6e 14 ba be b0 5c 2b 3f ed b4 a5 be
       0.32467708 -0.36343712 0.66938305 -0.32364598
000130 74 a1 d7 bb ad 27 87 3e 05 aa 3f be 02 de dd 3c
       -0.006580526 0.26397458 -0.18717201 0.0270834
000140 43 a3 fc be 8e 97 c7 3e ee fd 2e 3f c0 8b 8e 3e
       -0.4934331 0.38982815 0.68356216 0.27840996
000150 ee ac d3 be cf e4 09 3f f4 19 b6 bd 99 b6 79 3d
       -0.41342872 0.5386476 -0.08891669 0.060965154
000160 99 36 d5 bd ef 32 11 bf 36 e6 f9 be 87 92 13 3f
       -0.10410804 -0.56718343 -0.4880845 0.5764546
000170 80 5c ae 3e 8c db ee be 64 71 3c 3e 57 37 0c 3f
       0.34054947 -0.46651876 0.1840263 0.5477194
000180 03 4b 1b 3f 13 10 db be 6b 96 1e bf 84 e9 44 3e
       0.60661334 -0.427857 -0.6194827 0.19229704
000190 31 0f 32 bd c0 59 be 3d b4 0f 55 be e8 a7 ff 3d
       -0.04347152 0.09294462 -0.20806772 0.124831975
0001a0 09 16 d1 bd 7b 18 13 bd 6d ce 98 be 30 d9 10 3f
       -0.10209281 -0.03591202 -0.2984499 0.565814
0001b0 92 b3 88 be 9b bb 2f 3e fa 29 81 be 86 16 b0 3d
       -0.266995 0.1716141 -0.25227338 0.08598046
0001c0 2e ec 31 be cc 87 dc be a6 a1 2a 3f 7b c7 b2 3e
       -0.17375252 -0.43072355 0.66652906 0.34917817
0001d0 9e cc 26 3f fd b8 6f 3e 7d af 53 3e 97 24 35 bf
       0.6515597 0.23410411 0.20672412 -0.70758957
0001e0 aa 12 06 3f 36 b4 34 bf 77 01 21 bd 2b a8 28 3f
       0.5237223 -0.7058748 -0.039308038 0.65881604
0001f0 80 1d cb 3d 39 fd be be 70 5b 06 3f d9 c1 08 bf
       0.09917736 -0.3730257 0.5248327 -0.5342079
000200 fe 3d d4 3d cd 5b 25 bf d0 c5 d8 bc 6d 71 ac be
       0.103633866 -0.645932 -0.026461512 -0.33680287
000210 ab 28 4f bd ac 88 2b 3f 61 a3 82 3d cb 42 c5 be
       -0.050575893 0.6700542 0.06378818 -0.38527521
000220 05 83 00 3e f0 ea ce bc c2 ee 2f 3f ee 6a 13 3e
       0.1254998 -0.025258511 0.6872369 0.14396259
000230 d1 6a 54 bd ec 3e 2a 3f 87 d9 91 be c1 86 bc 3e
       -0.05185968 0.6650226 -0.28486273 0.3682156
000240 15 e0 ff 3e c0 8d ed bd 2b ca 1f 3f 7a f8 99 3d
       0.4997565 -0.11599302 0.6241786 0.07518096
000250 c7 4b 01 be 6a c9 d1 bd 1c 57 54 bd d3 5b 84 3e
       -0.12626563 -0.10243495 -0.051840886 0.25851306
000260 a2 ec 5d 3e 6f 80 dc be 40 20 a2 3e ad 75 f5 be
       0.216723 -0.43066737 0.3166523 -0.47941342
000270 f2 cb 22 bf dc f6 ed be bb 7e 9a bd a1 ee 2a 3e
       -0.63592446 -0.464774 -0.07543703 0.16692592
000280 f4 40 e5 3e 8d f2 35 3f 17 3e 06 bf 05 7d 0a be
       0.44776118 0.7107323 -0.5243849 -0.13524254
000290 18 64 f5 bd ad 6b 55 3e 23 18 8d bd 3d 20 dc be
       -0.11981982 0.20841856 -0.06889369 -0.42993346
0002a0 e2 8d 0c 3f af dd f5 3e 78 26 01 bf ae 38 d3 3e
       0.54903996 0.48020694 -0.50449324 0.4125418
0002b0 ca c9 8e 3e 16 1c 16 3f 47 3c b4 3e 82 ae 29 3e
       0.27888328 0.58636606 0.35202238 0.16570476
0002c0 de 00 f5 3e 84 c5 59 3e 17 da 39 be 96 fa 1f bf
       0.47852224 0.21266752 -0.18149601 -0.6249174
0002d0 e3 1e 9f be c9 60 5e bc e5 c9 1a 3e 9e 8c e1 3e
       -0.31078252 -0.01357288 0.15116079 0.44052595
0002e0 e6 70 0e bf 6d 27 98 bd 1f bb 14 bf dc 39 fb 3e
       -0.5564102 -0.07429395 -0.58098024 0.4906758
0002f0 8b 2d 2d bf ab 75 31 3f 85 5c 1b 3f f3 53 94 be
       -0.6764762 0.6932017 0.6068805 -0.28970298
000300 62 72 20 3f 36 9f 8d 3d 03 54 1f 3f 90 c8 02 3f
       0.62674534 0.06915133 0.62237567 0.51087284
000310 50 e3 de be 39 a8 cb be 17 88 c8 3e f8 64 83 3e
       -0.435328 -0.3977678 0.39166328 0.2566297
000320 bb 48 5d 3e d0 21 0b 3f 84 d8 8d be c9 d5 1f 3f
       0.21609776 0.5434847 -0.2770425 0.62435585
000330 a4 69 b3 3e c3 7f 8c bd 06 f0 7c be 68 73 c8 be
       0.35041535 -0.06860306 -0.24700937 -0.39150548
000340 ad 05 0e 3f 69 a4 ad 3e b9 18 12 bf e6 d6 f3 3e
       0.5547741 0.33914497 -0.57068974 0.47624892
000350 b0 6d d9 3c cb 81 fe 3e e2 70 47 be d1 b8 a6 3e
       0.02654156 0.497084 -0.19476655 0.3256288
000360 7a e3 07 3f c0 17 25 3f 27 b6 be be 03 7f a2 bd
       0.53081477 0.64489365 -0.37248346 -0.07934382
000370 54 96 9b be aa ae b0 3e 5f 05 d0 3d 9e 17 96 be
       -0.3038813 0.34508258 0.101572745 -0.29314893
000380 48 08 b3 3e 32 67 6a bd 61 2a 21 3f 43 29 56 3d
       0.34967256 -0.05722732 0.6295529 0.052285444
000390 67 a0 0f 3f af 66 2d be 67 09 bd 3e ba 4e 5a be
       0.5610413 -0.16933702 0.36921236 -0.21319094
0003a0 d1 76 16 3f b1 a8 47 3d 8e 5a 24 3f a5 f4 a1 3d
       0.5877505 0.04874486 0.64200675 0.0790799
0003b0 75 01 2c bf a8 df 39 3e 27 25 08 3e 29 79 20 3f
       -0.67189723 0.18151724 0.13295422 0.62684876
0003c0 39 35 21 3f ea d9 3a 3d e6 44 3e bf 37 21 95 be
       0.62971836 0.045617975 -0.7432388 -0.29126903
0003d0 99 ea 88 bc b1 be 0f bf 6c 19 16 3f 2f f6 8e 3e
       -0.016713427 -0.56150347 0.5863254 0.27922198
0003e0 d5 f5 c3 3e d9 2d f8 bd e8 29 06 3e 37 ee a9 3d
       0.38273492 -0.1211812 0.13101923 0.08297389
0003f0 c0 58 68 3e 4b a2 bd be a5 50 d3 bd cd 26 2c 3f
       0.22690105 -0.37037882 -0.10318116 0.67246705

fc2.weight f4 [128, 256]
000000 12 02 e6 3c b3 e2 1e 3c 78 b0 9c bb 07 19 2e bd
       0.02807716 0.009697604 -0.004781779 -0.042504337
000010 d4 b8 4a bd 95 ba d0 bc 7a 33 ca bb 6b 2d 2b bd
       -0.049492672 -0.025479594 -0.0061706873 -0.04179136
000020 bd 22 1a bd 21 74 2a 3d d5 95 43 bd e1 ff 93 ba
       -0.037630785 0.041614655 -0.047750313 -0.0011291468
000030 99 dc 07 3d 85 34 0b 3d 0e 14 05 bd 67 7d 25 bc
       0.033169363 0.033985633 -0.03248983 -0.010100699
000040 36 b0 25 3d 6a fd 29 3b 18 1f 34 3c 43 64 33 bd
       0.04045125 0.00259384 0.010993741 -0.04379679
000050 da 2a c1 3c 6a cb 74 bc 7b d6 97 3c 81 47 27 3d
       0.023580004 -0.014941076 0.01853489 0.040839676
000060 e8 35 21 bd 0e 72 36 3c c3 bc 50 3d c9 9e 6c 3d
       -0.03935805 0.011135591 0.050961267 0.057768617
000070 fd 7c 62 3c 73 ce a5 bc 4d c3 66 bc fc ab 6b bd
       0.013823745 -0.020240044 -0.014084649 -0.057537064
000080 8f 69 95 3c 64 e0 ac 3a 0c d0 90 bc 0c 17 57 3d
       0.01823881 0.0013189432 -0.01767733 0.052512214
000090 d4 2e 71 bd 0e 5d 5a 3b 86 77 9b bc e9 32 6b 3d
       -0.05888255 0.0033319625 -0.018977892 0.0574216
0000a0 71 c2 b5 bc 39 41 41 bd 1e ff 46 3d 6c 75 07 3b
       -0.022187443 -0.04718134 0.048583142 0.0020669354
0000b0 39 be 79 bc a9 5b 68 bd 87 3f 01 bd c6 a0 92 3c
       -0.0152431065 -0.05672804 -0.031554725 0.017898928
0000c0 e6 80 3a bd 03 0c 4c 3c 79 21 30 bd 09 03 24 3c
       -0.045533083 0.012454036 -0.043000672 0.010010489
0000d0 6b b3 6a 3d e1 8e dd 39 c7 27 54 bd bc cc ee 3c
       0.057300013 0.00042258858 -0.051795747 0.02915036
0000e0 88 2b aa bc 1e fa 66 3d 20 7f f0 3c 48 d2 74 3c
       -0.02077271 0.056390874 0.029357493 0.014942713
0000f0 96 92 64 bd ea e3 b5 bc a0 24 22 3d 33 14 76 bc
       -0.055803858 -0.022203404 0.03958571 -0.015019464
000100 9a 35 09 3d a7 21 36 3d 75 17 71 3d 6e dd 43 3c
       0.033498384 0.044465687 0.05886026 0.011954648
000110 cd a3 b8 3c e5 88 40 3c 6c ab 26 bd ec 5e 1e bd
       0.022539044 0.011751388 -0.040690824 -0.038664743
000120 61 d9 81 bd a7 1b f6 3c 1b 56 ac bb 1c 66 6a bc
       -0.0634029 0.030042483 -0.005259288 -0.014306571
000130 e1 32 b9 bc e5 85 66 bd 4a 98 21 3d f6 f8 27 bd
       -0.022607269 -0.056280036 0.039451875 -0.041008912
000140 08 97 aa bc 0b f3 16 3d 8f 88 09 bd 00 ff 3b bd
       -0.02082397 0.036852878 -0.033577498 -0.045897484
000150 88 5c b3 3c f7 a9 0c bd 65 66 fa 3c 7a 9f d2 bc
       0.021894708 -0.03434178 0.030566404 -0.02571081
000160 88 c5 75 bd 8c dc 30 bd b8 6f b9 ba 38 2c 1d bd
       -0.060002834 -0.04317908 -0.0014147675 -0.03837225
000170 8f 0b 91 bc 33 6e f6 3c 44 6f 81 bd 35 39 ef bc
       -0.017705707 0.030081844 -0.0632005 -0.029202083
000180 75 c2 9f bc 40 bc 6e bd d8 2f 1a bc 4d 0b 0d bd
       -0.019501904 -0.058284998 -0.009410821 -0.034434605
000190 d1 b5 14 bd bd db 2f bc 21 12 44 3d 6d c5 58 bd
       -0.036306206 -0.010733542 0.04786885 -0.052922655
0001a0 77 b3 94 bc 9f e6 3e bd a3 88 0a 3d d7 22 06 ba
       -0.018151982 -0.046606656 0.033821713 -0.0005116886
0001b0 95 40 71 bc d8 09 41 bd c2 88 3f 3d 68 fe a7 3c
       -0.01472487 -0.04712853 0.04676128 0.020507053
0001c0 28 31 26 3d 73 72 10 bd 45 c2 11 bd 1f b9 6c bd
       0.040574223 -0.035265397 -0.03558566 -0.057793733
0001d0 ca d9 82 bc 33 29 e6 bb cf bd 30 3d 18 0c 03 3b
       -0.01597299 -0.0070239543 0.043149766 0.0019996222
0001e0 70 68 85 3d 03 6f 43 3d 45 f5 88 bc 96 28 71 bc
       0.065140605 0.04771329 -0.016718516 -0.014719149
0001f0 59 4d 60 bc d1 ae 5b 3d 3c 3e 7c bb e6 b0 1a 3d
       -0.013690316 0.053633515 -0.0038489243 0.03776636
000200 d8 fb ff 3b 70 cb c8 3c 35 a9 49 bc 80 69 34 bc
       0.0078120045 0.024511069 -0.0123084085 -0.011011481
000210 33 84 19 3c e4 13 34 3d 7b d4 47 3d 9f e9 75 bd
       0.009369898 0.04396428 0.04878662 -0.06003725
000220 a1 2a 87 3c 3b e2 be bc 5e be 88 3c c9 31 6c 3a
       0.01649982 -0.023301234 0.016692337 0.0009010104
000230 28 12 01 bd 4a 60 73 bd 8e c2 52 bc ce 7e 43 bd
       -0.031511456 -0.059418 -0.012863768 -0.047728352
000240 d9 5e 9b 3b a7 bb 90 3b b9 8c 8d 3d 25 5b eb 3c
       0.0047415313 0.004416901 0.06911606 0.028729985
000250 54 2b e4 3b 40 b4 34 3d 20 aa 6b 3c 97 86 10 3d
       0.006963173 0.044117212 0.014383823 0.035284605
000260 38 f0 38 bd e8 d0 67 3d c9 e3 38 bc 9c ac 4f bc
       -0.045150965 0.056595713 -0.011284777 -0.012675431
000270 14 14 a1 bc 06 10 12 3d d0 41 09 3d 1c 2d d0 3b
       -0.019662894 0.035659812 0.03351003 0.0063530337
000280 18 1d 2d 3b 92 76 7d 3b d5 e1 e0 bc 65 d9 d2 3a
       0.0026415046 0.003867541 -0.027451435 0.0016086517
000290 c7 bd fe bc cd c1 25 3d c4 d4 de bc 42 bf c2 bc
       -0.031096352 0.040468026 -0.027201064 -0.02377284
0002a0 5b 77 f3 bc 40 32 12 3d 94 e2 7d 3c 64 0b 38 3c
       -0.029719999 0.035692453 0.015495915 0.0112331845
0002b0 b7 1b d6 3b 2f 60 53 bd 41 dd f8 bc b6 f5 79 3c
       0.0065340656 -0.0516054 -0.03037894 0.015256336
0002c0 71 4c 6b 3d d2 dc 72 bd 10 77 44 bc 00 77 08 3a
       0.057445947 -0.059292622 -0.011991277 0.00052057207
0002d0 62 e8 2e 3d 2b 3d a8 bc 72 62 09 bc 07 79 71 bd
       0.042702086 -0.02053698 -0.008385288 -0.05895331
0002e0 aa 83 35 bd e2 4f 65 bc 6a 4b 7e bd 8a 25 e0 ba
       -0.044315018 -0.013996096 -0.06208364 -0.0017101031
0002f0 86 55 42 bc cd 9e 4f 3d 41 ed 47 bd fb 7f 27 3d
       -0.011861211 0.050688554 -0.048810247 0.040893536
000300 39 06 46 bd 70 5d b2 ba 78 99 31 bd ca e1 05 3c
       -0.04834578 -0.0013608169 -0.04335925 0.008171508
000310 b8 7d 1b 39 9b 5f 33 bc 95 78 6d 3c 62 27 e2 3b
       0.00014828786 -0.010948087 0.014494081 0.0069016675
000320 e8 14 84 3d 5c ea 82 3c 5f 6d 3d bc 97 f5 d4 3b
       0.064493 0.015980892 -0.011561721 0.006499003
000330 d4 76 16 3d 76 16 69 bc 70 c4 42 3d 4a 37 4b ba
       0.036734417 -0.0142265465 0.04755062 -0.0007752074
000340 4d 69 43 3d 45 e1 60 bd db 95 fe bc 70 ba 56 3d
       0.047707845 -0.054902334 -0.031077316 0.052423894
000350 bb ab fe 3c ca bc 6e 3c 12 0b c6 bc 7e 9b 62 3d
       0.031087747 0.014571378 -0.0241752 0.05532407
000360 22 b2 14 bd 2d 0a b6 3c eb 10 e4 3c ef 33 8b bd
       -0.036302693 0.022221649 0.027840098 -0.06797015
000370 a8 b6 e1 3c f7 e5 cd 3c b6 54 f3 bc 14 23 84 3c
       0.027552918 0.02513407 -0.02970348 0.016130008
000380 36 07 29 3d 40 ce 93 39 fb db 10 bd 67 bf 04 3d
       0.041266643 0.00028191693 -0.03536604 0.032409098
000390 e3 a1 03 3c 79 b7 55 bd 37 d0 b2 3c cf 5e 29 3d
       0.008034202 -0.052176926 0.0218278 0.041350182
0003a0 f4 74 63 3c a1 a3 ae 3b eb b6 91 3c e8 a4 dc 3c
       0.013882864 0.0053295647 0.017787417 0.026934102
0003b0 94 7f 42 bd 46 de 83 3d 59 93 be bc e0 fb c3 bc
       -0.04748495 0.0643888 -0.02326362 -0.023923814
0003c0 34 c1 cb bb 22 3b 30 3d cc 19 c7 bc af 3c 1d 3d
       -0.0062181 0.043025143 -0.024304293 0.03838795
0003d0 ba fc 8f bb 7a ed 39 3d 0f 31 17 3d a7 cd cd bb
       -0.004394141 0.04539249 0.03691202 -0.006280619
0003e0 0d c0 4e bd 9e dc 52 bd 5b b2 e3 3c ab 99 46 bd
       -0.050476123 -0.05147993 0.027795007 -0.048486393
0003f0 54 8b ce bc fc 3b 8e bc e2 b6 81 bd 79 58 68 3d
       -0.025212921 -0.017362587 -0.0633371 0.056725

fc2.bias f4 [128]
000000 ea 19 0a b9 f6 f4 58 bd f0 68 68 3d 3a 13 fc ba
       -0.0001317036 -0.052967988 0.0567407 -0.0019231804
000010 53 8a 5a bc 05 ab 07 3d d9 d4 bd bc 30 b1 30 3d
       -0.013338643 0.03312208 -0.023172783 0.04313773
000020 2e 99 81 bc 01 d8 17 bd e9 12 1d 3d ae d7 15 3d
       -0.015820112 -0.03707123 0.038348112 0.03658264
000030 0a 8a 71 bd e8 a6 b9 3c b9 71 5b 3d cf 2a ca bb
       -0.058969535 0.022662595 0.05357525 -0.006169654
000040 0c a6 fd 3c a4 16 99 3c ef 53 20 3d 08 a2 66 3d
       0.030962966 0.018687554 0.039142545 0.05630687
000050 80 63 65 3d c5 0f 97 bc 8b f4 17 bd a2 a7 41 bd
       0.056003094 -0.018440137 -0.03709845 -0.047279008
000060 1a 36 ef bc ac 32 65 3c fe e7 21 3d 55 b9 54 3d
       -0.029200602 0.013989132 0.039527886 0.05193456
000070 a6 b6 6d 3c 4b a5 30 3b b5 7d 0f bb 61 11 83 3d
       0.014508879 0.002695399 -0.0021894996 0.06399799
000080 db 14 3f bd 62 dd 5f 3c fb 93 da 3c f9 b8 94 bc
       -0.04665075 0.013663622 0.02668189 -0.018154608
000090 d9 c1 74 bc 18 e5 29 bd a1 9e 46 3d ad a4 b6 bc
       -0.014938795 -0.041478246 0.048491124 -0.02229532
0000a0 cd 20 ab bc b7 f7 ad bc e0 ae 1a 3d b7 79 67 3d
       -0.020889664 -0.021236284 0.03776443 0.05651256
0000b0 5a 8b 14 3c 43 70 9f bc 8c ff 61 3d 76 b3 26 3d
       0.009066427 -0.01946271 0.05517535 0.04069849
0000c0 25 72 30 3d ef b3 e6 3c 53 a7 2e 3d 76 21 8c 3d
       0.043077607 0.02816197 0.04264004 0.0684232
0000d0 74 3b a2 3c 58 bf 5b 3c a5 fd 2e 3c 58 c2 4e 3c
       0.01980374 0.013412319 0.010680591 0.012619577
0000e0 99 ef 66 3d a7 0a d5 3c 62 df 98 bd e8 35 2f bc
       0.056380842 0.026006056 -0.07464482 -0.010694005
0000f0 59 ac 83 3d c9 94 c2 3c 8c 2e 63 3d 0e ad 56 3d
       0.06429357 0.023752587 0.055464312 0.05241113
000100 00 20 97 39 f3 ed 9f bc bd 40 34 3d 1a d5 bb 3c
       0.00028824806 -0.019522643 0.04400705 0.022928763
000110 31 94 3a bd 2a 43 29 bb 8c 5c 1d bd 2e 9f d6 bc
       -0.045551483 -0.0025827386 -0.038418338 -0.02619895
000120 5a fe 09 3d b5 8b 5d 3d a5 43 4b 3d ab a3 a1 bb
       0.033689834 0.054088313 0.049625058 -0.004932841
000130 71 be 86 3c 2b 69 81 3d fc d0 00 ba 15 c8 19 bd
       0.016448231 0.06318887 -0.00049139536 -0.03754433
000140 00 a0 47 b9 b8 68 4c bc 45 82 68 3d dc fe 7e 3d
       -0.00019037724 -0.012476139 0.05676486 0.06225477
000150 b6 8f 93 3d f8 c7 2c 3d fa bd 89 3d 92 36 7e bc
       0.07205145 0.042182893 0.06725688 -0.01551594
000160 64 0e a3 3d 1c 69 5b bb 0b e8 05 bd 40 fb a4 3a
       0.07961729 -0.0033479398 -0.032691997 0.0012587085
000170 5a 8f 73 3c 35 0d 37 3d 67 66 ef 3c 74 26 0b bd
       0.014865721 0.04469033 0.029223634 -0.03397222
000180 c2 76 61 3c 46 57 7d bc d6 b6 9f bd cd 23 93 3d
       0.013761224 -0.015462702 -0.07798545 0.07184563
000190 be 69 92 3d 7a d9 03 bd 91 49 04 3a 19 f4 18 3d
       0.07149075 -0.032189824 0.00050463626 0.037342165
0001a0 d2 1f 3f 3d cc 56 31 3d 76 ee 4b bd 50 84 ae bc
       0.046661206 0.043295667 -0.04978796 -0.021303326
0001b0 ed 04 a2 bc 92 61 c2 bb 76 0e f2 bc fc 6f 9c 3d
       -0.01977774 -0.0059320414 -0.029547911 0.07638547
0001c0 b5 1c b7 bc 42 b4 cf bc 6c 5d 61 bd d1 59 ae bc
       -0.022352556 -0.025354508 -0.055020735 -0.021283062
0001d0 c7 4f 3c bd 5a cb 1d 3d ae d0 7b bd f7 22 de 3b
       -0.04597452 0.03852401 -0.06147831 0.0067790705
0001e0 5c 12 d5 bc 49 7d 06 3c d0 cf b0 3b 4f 4e 88 3d
       -0.026009731 0.008208581 0.005395867 0.06655561
0001f0 33 8e 97 3c 8f e0 64 bd 1c 6e 38 bc 08 68 af 3c
       0.018500423 -0.05587822 -0.011256721 0.02141191

fc3.weight f4 [64, 128]
000000 d0 7b 62 bb 59 dc a9 3d ff a3 8e bb df 3e 94 bd
       -0.0034558661 0.08293981 -0.004353046 -0.07238554
000010 7b 70 44 bc 42 23 6d 3d 7e ce 27 3c ba 2f 95 bd
       -0.011989708 0.057894953 0.010242103 -0.07284494
000020 5d f4 c8 bc 39 8e 40 bd f5 16 ac 3d a3 04 05 3e
       -0.024530584 -0.047010634 0.08402816 0.1299005
000030 40 29 3b bc 81 92 09 bd 05 a9 9b bb 74 a7 b5 3c
       -0.011423409 -0.033586983 -0.0047503733 0.022174574
000040 d4 7e 88 bd 09 b3 b0 bc a0 67 b6 bc 82 35 58 bd
       -0.066648155 -0.021569746 -0.02226621 -0.052785404
000050 58 27 8f bb 48 06 d7 3c ce 0f 74 bb 96 00 e2 3d
       -0.004368704 0.026248112 -0.0037240866 0.11035268
000060 0b c6 1b bd 41 4d d1 bd 98 47 a5 3c da 23 4f 3d
       -0.038030665 -0.10219813 0.02017574 0.0505713
000070 ff 35 90 bb 94 71 2a 3c 65 41 7e 3d fd cd 7a 3b
       -0.004400968 0.010403056 0.062074084 0.0038269751
000080 f4 27 91 3c 33 7c df bc f5 d2 33 3d 9e 9c 81 3d
       0.017719246 -0.027280902 0.043902356 0.063287005
000090 f3 d5 c3 bc 06 fd 1f bc 17 c8 b1 3c e1 9c a2 3d
       -0.02390573 -0.009764915 0.021701856 0.079400785
0000a0 0f fe b4 3d 0d d4 b0 3d 43 af bf bd b1 4f 7f 3d
       0.0883752 0.086341955 -0.093596004 0.06233186
0000b0 b2 20 83 3d f9 a0 a6 3d 00 0a 4f 3a 99 22 9b 3d
       0.064027205 0.08136172 0.00078979135 0.07574958
0000c0 0f f3 7e 3d 86 da a6 bd b4 5f 12 3d 60 70 a8 3d
       0.062243517 -0.08147149 0.0357358 0.08224559
0000d0 00 2e 83 ba 0e 1f 80 bd 45 94 21 bc a0 33 4d bc
       -0.0010008216 -0.06255923 -0.00986201 -0.012524515
0000e0 77 cd 35 3c 64 95 a4 3d 38 7b 80 3e 38 e8 06 3d
       0.01109635 0.080363065 0.25094008 0.032936305
0000f0 d4 cb b7 bb 96 fd d6 3c f7 89 b4 bc 52 24 18 3e
       -0.005609015 0.026243966 -0.022038443 0.14857605
000100 da b0 3c 3d 82 b4 24 3d bd d3 9c 3d 9b af 15 3e
       0.046067096 0.04021121 0.07657573 0.1461777
000110 09 ce 62 bc 93 95 ad 3d b8 78 bc 3d 11 82 00 3b
       -0.013843068 0.08475795 0.09202713 0.0019608776
000120 9c f1 69 3c 9a 30 d4 bc 82 1a 87 3c 8e b3 ad bb
       0.014278796 -0.025902081 0.016492132 -0.0053009456
000130 80 b2 13 3a 31 ee a1 3d 30 95 f0 3d 6d 3c 44 3d
       0.00056342036 0.079067595 0.11747205 0.04790919
000140 2a 5a 1b 3d 9e e1 1c 3d 93 99 e2 bc c2 09 0f 3c
       0.037927784 0.038301103 -0.02766112 0.008730354
000150 ff 95 a9 3d b0 8e 87 3c 2b d0 bb 3c 20 ba cb 3c
       0.082805626 0.01654753 0.02292641 0.024869025
000160 ba 04 a1 bd 71 76 17 bd a5 9b 54 bd f4 44 0b bd
       -0.0786223 -0.03697819 -0.051906247 -0.034001306
000170 6a 5c a6 3d 27 79 2e 3d 2b 8a e5 bc bd 44 8f bd
       0.08123095 0.04259601 -0.028019985 -0.06995533
000180 9a 58 77 bd ca ea fa bc 8d 05 6c bc 33 1d 1c 3d
       -0.06038723 -0.030629534 -0.01440562 0.038113784
000190 dd 12 c3 bd 9e e8 60 3b 56 26 aa bc bf 1a 08 bc
       -0.09525082 0.0034318338 -0.020770233 -0.008307158
0001a0 88 8b a1 3d 7d ab 30 bc 56 44 ce 3d be 1c e8 bc
       0.078879416 -0.0107830735 0.10071628 -0.028334018
0001b0 e6 cb 8e 3d e2 7f da 3c 93 24 8f bc 79 bd a8 bd
       0.06972484 0.026672307 -0.017473495 -0.08239264
0001c0 7e 5a 98 bd 78 b5 2f bd ea 93 de bd 25 13 45 bd
       -0.07439135 -0.04289767 -0.10868056 -0.04811396
0001d0 7c 72 8b bd f7 8c ab bd e4 f5 ac bd 2f 26 b8 3d
       -0.068089455 -0.08376496 -0.084453374 0.08991658
0001e0 6e 80 33 3d d8 6a 26 3d f6 1b 05 3d de 63 09 3d
       0.043823652 0.040629238 0.03249737 0.033542506
0001f0 09 cf c2 bb f5 2a 20 3e 71 ef 67 bd 56 f1 93 bc
       -0.0059450907 0.15641387 -0.056624833 -0.018059414
000200 e1 a5 98 bc e6 90 73 bd 4f f0 5e bd 09 25 fb bc
       -0.018633785 -0.059464358 -0.054428395 -0.030657308
000210 43 62 97 3d 39 43 a9 bb 48 f2 b4 bd 90 8b 60 3d
       0.07391789 -0.0051654843 -0.08835274 0.054820597
000220 5a 36 a5 3d 08 e8 2c 3c 30 6e 8e 3d cc 25 28 bd
       0.08067007 0.010553367 0.0695461 -0.04105167
000230 f5 a3 90 3d ab e0 96 3d a2 47 8a 3b c9 70 28 bd
       0.07062522 0.07367071 0.004219965 -0.041123185
000240 3d 08 58 3d cb 46 4a 3d c2 89 8f 3c 75 2f a0 bd
       0.05274223 0.04938392 0.017521743 -0.07821552
000250 4b 3d d9 3d a5 3c 65 3d ab 87 8d 3c 37 fc f6 bc
       0.10607394 0.05596604 0.017276606 -0.030149562
000260 60 d1 e9 bc 0a 19 80 bd 00 bd 05 bc 5e 26 6f 3d
       -0.02854222 -0.06254776 -0.008162737 0.0583862
000270 75 71 86 bd 0d 48 ab 3d 70 8d 60 bd 59 aa 53 bd
       -0.06564609 0.08363352 -0.054822385 -0.051676128
000280 5e 78 86 bd 72 f9 53 bd 63 1e 40 3d ab 58 49 bc
       -0.06565927 -0.05175156 0.04690398 -0.0122892065
000290 df 2b 7c 39 14 d4 a2 bd 63 06 8e 3d 81 21 28 bd
       0.00024048936 -0.07950607 0.06934812 -0.041047577
0002a0 3a 54 7b 3d e0 f8 6b 3d e3 aa 42 bc 9d b3 6a bd
       0.06135962 0.057610393 -0.011881563 -0.0573002
0002b0 35 de fd 3c ea 7d 40 bd 88 ac b9 3c b7 1b 64 3d
       0.030989746 -0.04699508 0.022665277 0.055690493
0002c0 91 2b 98 3d 28 58 ac bd 37 51 05 be 96 8c 1e bd
       0.07430185 -0.08415252 -0.13019262 -0.038708292
0002d0 90 a6 f2 3c 6b 27 55 bd ee 1d 07 3d 4a 90 06 3d
       0.029620439 -0.052039545 0.032987528 0.03285245
0002e0 ad d2 9e bd 95 b4 6f 3c 0e bf 20 be e8 7f 53 bd
       -0.07755027 0.014630456 -0.15697882 -0.051635653
0002f0 29 db 5d 3d c2 06 4b 3d f4 80 1e 3d a5 f7 e0 bd
       0.054164086 0.04956699 0.038697198 -0.109847344
000300 f0 d2 a6 3b a3 b2 0a 3d 37 a6 df bc 23 85 3f be
       0.0050910637 0.033861768 -0.027300937 -0.18703131
000310 36 e9 cf 3d e9 13 a2 bd be 45 bc 3d d5 48 89 3b
       0.10151903 -0.07913954 0.0919299 0.0041895905
000320 17 0e a3 3c 0d 33 a9 bd c5 9c 01 3d dd c0 b5 3b
       0.01990418 -0.0826169 0.031643648 0.0055466727
000330 5e 42 8e bc b1 5e a1 bc df 76 eb bc 83 1b b6 bd
       -0.01736563 -0.019698473 -0.028743206 -0.08891966
000340 4e 25 43 3d 10 ef f2 3c be 50 28 3d 62 b8 aa 3d
       0.047643 0.02965501 0.041092627 0.083359495
000350 44 99 e8 3c 96 ba 8c 3d 4b 6e a3 3c b8 c7 38 3c
       0.028393395 0.06871526 0.019950053 0.011278085
000360 24 e2 05 bd d8 5e 50 bd 66 69 7f 3d a5 97 82 3d
       -0.032686368 -0.0508717 0.062356375 0.0637658
000370 c7 de 02 bb c7 10 fc bc f6 b3 8d 3d 58 02 19 bd
       -0.0019969211 -0.030769719 0.069190904 -0.03735575
000380 24 6e 72 bd 37 74 4b 3d 32 59 ce 3d 79 b6 92 3d
       -0.05918707 0.049671378 0.100756064 0.0716371
000390 17 0f 01 bb c5 c9 c0 3d c8 98 69 bd 17 86 8b bd
       -0.0019692832 0.094134845 -0.05703047 -0.06812685
0003a0 8a 21 c7 bd c3 b4 57 3d 9c 30 cc 3d 75 29 a7 bd
       -0.09723194 0.052662622 0.09970209 -0.08162204
0003b0 ef a0 57 bd 8a 55 5d bd 67 cd b3 bc c7 85 0f bd
       -0.052643713 -0.054036655 -0.02194853 -0.03503969
0003c0 57 4f 8d 3d a8 f1 93 bd 9e 9c 6d bc 40 cd c8 3c
       0.068998985 -0.07223827 -0.0145026725 0.024511933
0003d0 28 3c 00 bd c8 ea 5e 3d f1 db 0b bd 3c 25 12 3b
       -0.03130737 0.054423124 -0.0341453 0.0022300025
0003e0 b9 9b a1 bd 0b 8e 1f bb cc 5e fc bc 21 91 a7 3d
       -0.0789103 -0.0024346139 -0.030806921 0.08181978
0003f0 dc d2 df 3d 0f 00 64 be f2 81 00 3d 55 a6 26 3b
       0.1092889 -0.22265647 0.031373926 0.0025428731

fc3.bias f4 [64]
000000 82 30 9c bd 80 5e bc 3c d4 eb 38 bd 92 ce 16 bd
       -0.0762644 0.02299428 -0.04514678 -0.036818095
000010 73 2b 0f bc 7b f0 5c 3d 04 93 96 bd fa 15 a3 bd
       -0.008738386 0.053940278 -0.0735226 -0.07963176
000020 88 56 44 bd d5 1c 6e 3d 8c 6b a3 bd f7 37 a9 bb
       -0.047934085 0.058132965 -0.07979497 -0.005164142
000030 91 7f 8e bd 50 4e 94 3b 8c d1 54 3d e6 6f 61 bd
       -0.06957925 0.004525937 0.051957652 -0.055038355
000040 46 42 cf 3d 02 bf 40 bc 58 70 a4 3d e4 36 37 bc
       0.101200625 -0.01176429 0.0802924 -0.011182521
000050 88 72 34 bd 0d db 7b 3d fb c4 93 bd 34 d4 7b 3d
       -0.044054538 0.0614882 -0.072153054 0.06148167
000060 e0 97 d1 bb 4f 54 42 3d 6e fd 74 3d c4 3c 55 bc
       -0.0063962787 0.047443684 0.059812002 -0.013014976
000070 49 ee 91 bb ba 5c 98 3d df 51 94 3c cd b0 76 bc
       -0.0044534546 0.07439561 0.018105445 -0.015056801
000080 2f 11 c1 3d de 4d 80 bd ee 30 d0 3c e4 16 4d bc
       0.09427106 -0.06264852 0.025413956 -0.012517665
000090 fb be c8 3a 58 89 ff bc 1f 07 2a 3d bd 20 9f 3c
       0.0015315706 -0.03119342 0.041510697 0.01942479
0000a0 dc a0 02 3d a5 30 54 3d dc 04 c0 bc 9b 71 15 bc
       0.03189169 0.051804204 -0.023439817 -0.009121324
0000b0 06 b6 11 3d 5e 61 d0 3c 9b f0 ad bd 1e 0a b6 3c
       0.03557398 0.025437053 -0.084931575 0.022221621
0000c0 6c 03 a7 3d b7 92 b2 3c 5e 5d 1a bd 02 b3 95 bd
       0.081549495 0.021798475 -0.0376867 -0.07309534
0000d0 50 66 bb 3d 60 f8 b4 bd 9e 22 ee bc 39 1a 9d bd
       0.09150374 -0.08836436 -0.029069241 -0.07671017
0000e0 75 96 5e 3d 7b a9 05 bd f7 ce 52 bd bf 8d 2f bd
       0.054342706 -0.032632332 -0.05146691 -0.04285979
0000f0 f0 39 bd 3b d2 a4 a3 3c 20 11 66 3d 77 10 65 3d
       0.005774729 0.019976053 0.056168675 0.055923905

fc4.weight f4 [32, 64]
000000 ff 3a e4 3d a7 2b e7 bd 17 77 f6 3d 8b bb 47 3b
       0.11144065 -0.11287623 0.12034433 0.0030476775
000010 27 76 4f bd 13 2c b3 3c af 94 f3 bd f7 2a 51 be
       -0.05064979 0.021871602 -0.118935935 -0.20426546
000020 ef 1a f3 bb 86 e6 7a bd 5a 2a 90 bd b4 36 a0 3d
       -0.007418982 -0.061255 -0.07039328 0.07822934
000030 d8 b4 8c be b0 f0 de bd b5 79 ce bd 96 a8 e0 bd
       -0.27481723 -0.10885751 -0.100818075 -0.10969655
000040 cc 1b a4 3c 34 db 87 3c a4 e4 75 3c b0 e7 ec 3d
       0.020032786 0.016584016 0.015008125 0.115676284
000050 46 34 06 3e 35 89 2c be 19 05 c4 bd 6c 2a 09 3d
       0.13105878 -0.16849215 -0.09571285 0.033487722
000060 78 45 c8 3d 37 c1 cf 3d ad 8c 8b bd 56 95 ed 3c
       0.09778875 0.10144275 -0.06813941 0.029001873
000070 4c dc e9 3c ed 6f a8 bd 81 5a 5c 3b e7 b5 9a 3d
       0.028547429 -0.08224473 0.003362328 0.07554226
000080 c9 a3 0d 3e df 79 9b bd b3 a5 1a bd 48 08 d2 3d
       0.1383201 -0.075916044 -0.03775568 0.10255486
000090 a5 c4 62 3d 71 e9 1e 3d e0 39 b5 3d 07 18 7d bd
       0.055363316 0.038796846 0.088489294 -0.061790492
0000a0 3a 03 dd bd 72 58 90 3d 1f b6 5f bd 76 8a 92 3d
       -0.10791631 0.070481196 -0.054617044 0.071553156
0000b0 c4 ac 11 be 78 6c 1f 3d 4e ee 40 bd cd 7e ff 3d
       -0.14226061 0.038921803 -0.047102265 0.12475357
0000c0 b3 cc 5a 3d 3f 00 f1 3d 19 f9 14 3c ab 05 82 bd
       0.053417873 0.11767625 0.009092593 -0.06348737
0000d0 6d 01 26 bd 36 06 b1 3d 34 19 37 3d d8 b1 d3 3d
       -0.040528703 0.08643763 0.04470177 0.103366554
0000e0 d1 6f 0e be 2d 9b 93 bd aa ec 90 bd fe 63 8b bd
       -0.13909842 -0.07207332 -0.0707639 -0.06806181
0000f0 47 16 cd bc b6 a4 a4 3c 6b b8 ac bd d1 05 92 3d
       -0.025035037 0.020098072 -0.084336124 0.07130016
000100 e3 6e 11 3e e9 b4 bc 3d 80 f7 cf 3c 41 de ed 3d
       0.14202456 0.092141934 0.025386572 0.11614657
000110 40 22 e1 bd 3a f8 57 bc 24 5b 06 be cf 99 15 be
       -0.10992861 -0.01318174 -0.13120705 -0.14609455
000120 fc 6e b6 3d 97 03 36 3d eb c0 b2 bd 8f 8d 02 3e
       0.08907887 0.044437017 -0.087282024 0.12749313
000130 49 f6 3a be 7a 2f b9 3d 25 6f 39 3d 4a 68 05 3d
       -0.18258013 0.090422586 0.04527201 0.03257016
000140 1c 81 6d 3d f5 80 be bc a2 50 ed 3c 4e ca 11 3e
       0.057984456 -0.02325485 0.028969113 0.1423733
000150 41 58 eb 3d 1e 44 26 bd ce ed 3a be 14 95 46 3d
       0.114914425 -0.040592305 -0.18254778 0.048482016
000160 b0 64 5c 3d 44 f0 89 3c 20 2a e1 bd 17 34 c1 bd
       0.05380696 0.0168382 -0.10994363 -0.094337635
000170 00 13 04 3d 28 17 be bd d3 e6 a0 3d f1 14 d8 3c
       0.032244682 -0.092817605 0.07856526 0.026377173
000180 89 58 89 3c d3 36 ea bc e1 dc 0a 3c a7 d5 67 bc
       0.01676585 -0.028590595 0.008475513 -0.01415006
000190 20 4e ca bd b3 74 34 bc 18 1e d6 bd 91 48 8f 3c
       -0.098781824 -0.011014151 -0.10454959 0.017490657
0001a0 08 14 2d bd a1 d9 68 bd b7 7c 5d bb 27 77 c1 3c
       -0.04225543 -0.056848172 -0.003379626 0.023616387
0001b0 78 5f 6e 3d 61 d8 22 bd 8c 0f a8 bd 4c 14 b7 3d
       0.058196515 -0.039757136 -0.0820609 0.08939418
0001c0 ce 5c 7c bc 0d 9c a1 bc c8 34 45 3d 0c 78 e5 bc
       -0.015402986 -0.019727731 0.04814604 -0.028011344
0001d0 c4 f2 25 bd c0 26 e9 bc ec 0e dd bd 8a bd 4e 3d
       -0.040514722 -0.02846086 -0.10793862 0.050473727
0001e0 90 e3 cd bd 96 6c 9b 3c 16 cb e2 3d 29 a8 45 bd
       -0.1005317 0.018972676 0.11073892 -0.048256073
0001f0 a6 89 d1 3d cb b3 b6 bd c7 6e d3 bd 95 f2 b5 bd
       0.102313325 -0.089210115 -0.103238635 -0.088841595
000200 db 57 76 be 27 82 c4 3d 77 75 81 3d ab b0 4c bd
       -0.24056952 0.09595137 0.06321233 -0.04997317
000210 26 2a ae 3d 58 c5 e9 3d 1f 5a c8 3d 92 f9 19 3e
       0.08504133 0.114145935 0.09782814 0.1503661
000220 83 dd c0 bd 5d 0c 12 3e d0 48 cb bb 48 7e 2f 3d
       -0.0941725 0.14262529 -0.0062037483 0.04284504
000230 20 e4 7e 3e 30 7e 7e 3c ac c6 f3 3d 29 b5 07 3d
       0.2489171 0.015533015 0.11903128 0.033131752
000240 ce 1a 06 be d2 28 df 3d 23 98 b7 3b 87 fb 65 bc
       -0.13096163 0.10896458 0.005602853 -0.01403702
000250 9a 46 e2 bd a4 7c 3c 3e 90 da a1 bd b6 81 07 3e
       -0.110486224 0.18406922 -0.079030156 0.13233075
000260 7c 10 73 3d 48 c6 05 3c 14 42 ee 3c a8 4a 7a bd
       0.059341893 0.00816495 0.029084243 -0.061106354
000270 74 8c b3 3d fe ec 1b 3e 32 29 30 3e 1e c2 17 3d
       0.08767024 0.15227124 0.17203215 0.03705036
000280 2e e3 9e 3c b3 61 c4 3d 0e a8 62 3d 53 c4 e4 bd
       0.019395437 0.09588947 0.05533605 -0.111702584
000290 d2 c1 b8 bc 7b 73 bb 3d ca cb 6e bc 68 94 03 3d
       -0.022553358 0.091528855 -0.014574954 0.032123953
0002a0 e4 dd 52 3d 16 98 79 3d 4c 1e 73 3d 0d 2a 93 bd
       0.051481143 0.060936056 0.059355065 -0.07185755
0002b0 9d 6e 90 3d 6b 16 e5 3c 24 c6 cd 3d 12 f2 80 3d
       0.07052348 0.027964791 0.10047558 0.06296171
0002c0 18 91 d5 bd 11 11 a7 bd 30 fd 5a bc eb 3d d4 3d
       -0.10428065 -0.08157552 -0.013366029 0.103633724
0002d0 45 36 42 bd 9c 3f 9a 3d 2c 18 92 3d aa 54 9d bd
       -0.047415037 0.07531664 0.07133517 -0.07682164
0002e0 0c 8d 32 3e 5a 18 80 bd d8 6d 63 3d 51 2a 18 3e
       0.17436618 -0.06254645 0.055524677 0.14859892
0002f0 3e 0b a4 bd 06 b7 cb 3d 5f c7 39 bd a5 06 be bc
       -0.08009957 0.09947018 -0.04535615 -0.023196528
000300 3a 15 71 be a8 94 ac 3d c6 26 ab bd 6d ea 76 3d
       -0.23543254 0.084267914 -0.08357005 0.06028216
000310 8d 74 f8 3d 4e f6 8f bd 8a 2f d7 3d a0 e2 4b 3e
       0.12131605 -0.07029401 0.10507114 0.1991067
000320 59 4e 1f bd 9f 9d 04 3e 90 1e 51 3e 58 02 a7 bc
       -0.038893078 0.12950753 0.20421815 -0.02038686
000330 3d fd 13 3e 40 88 46 3d f6 ae 23 3d d8 31 25 bd
       0.14452071 0.048469782 0.039961778 -0.040330738
000340 3b bb dd bd f3 1b ff 3d 28 fa c8 3d e6 b4 3b 3d
       -0.10826727 0.12456503 0.098133385 0.045826815
000350 de 8e 83 bd 70 27 44 3e f5 66 f2 3d aa 9d f6 3d
       -0.06423734 0.19155669 0.11836044 0.12041791
000360 4e 70 a7 bd 33 01 fc 3d f6 58 6f bc f1 65 f1 3d
       -0.08175717 0.12304916 -0.014608612 0.11787022
000370 c5 9e 37 bd 87 21 84 3d d3 07 91 3d cd 1a a6 3d
       -0.04482915 0.06451707 0.070815705 0.081105806
000380 6e 44 d2 bd 39 fc ee 3c f7 5d 81 bc 9d 95 f4 bc
       -0.10266958 0.029173004 -0.015791876 -0.029856497
000390 ce 11 95 bd ca a3 fc bc 3f b9 0a 3b 26 ce 62 3d
       -0.072787866 -0.03083982 0.0021167544 0.05537238
0003a0 d8 f0 32 bd 0b 9b 9d bc 0b 98 4e 3d c3 4b c7 bd
       -0.043686718 -0.01923897 0.05043797 -0.09731247
0003b0 4d 0e 90 3d 11 0e 27 bd 57 5c 3f bd 2b 89 57 3d
       0.07033978 -0.0407849 -0.04671892 0.052621048
0003c0 ee 1f 9a 3d dd 14 50 bb 91 0d 0f bc 13 bd 78 bd
       0.07525621 -0.0031750717 -0.008731262 -0.06072719
0003d0 6a d9 ab bd 56 5d f7 3d 8c a4 95 3d 57 5a 9e bd
       -0.08391078 0.12078349 0.073067755 -0.07732075
0003e0 9e 82 81 3d cf b1 ad bd bc af d3 bd 0d 89 14 3e
       0.063237414 -0.0848118 -0.10336253 0.14505406
0003f0 c8 dc 50 3c a5 19 bf bc b1 3a 9e ba 17 41 d0 3a
       0.012747951 -0.023327658 -0.0012071935 0.0015888539

fc4.bias f4 [32]
000000 7b 1b d6 3d c5 ff 7e 3d 58 bb d7 3c c1 c2 b8 3c
       0.1045446 0.06225564 0.02633445 0.022553803
000010 b9 dd be bd 4a d8 d3 3d 3a e1 1f 3c 64 d0 0a 3d
       -0.09319634 0.10343988 0.009758288 0.033890143
000020 ff b5 37 bd df 90 e5 3d 3f db 66 bd 47 25 63 3c
       -0.0448513 0.112092726 -0.056361433 0.013863868
000030 0f 75 bd bd 03 f2 97 3c 44 af a6 bc 90 00 99 3d
       -0.09250843 0.018548017 -0.020347245 0.074708104
000040 61 b8 b4 3b 66 04 e6 3d f3 6e eb bd 3a bf 61 bd
       0.0055151437 0.11231308 -0.11495771 -0.05511401
000050 1f 72 1a bd 5f 41 ec 3d ec b5 6c bc 1c ac 39 bd
       -0.03770649 0.11535906 -0.01444767 -0.045330152
000060 41 be 95 3d d8 6a 86 3d 51 8a 0b bd 80 04 ee bc
       0.07311679 0.065633476 -0.034067456 -0.02905488
000070 9c f3 e9 3d ab cb b3 bc f1 33 83 3d 15 65 8e 3d
       0.11423418 -0.021947702 0.064063914 0.069528736

fc5.weight f4 [1, 32]
000000 5e 44 50 be 47 c1 99 bd 17 cc 33 3e 1d cf fd 3d
       -0.2033858 -0.07507568 0.17558323 0.12393019
000010 02 ac 4e be 3d 4c 50 be c8 f4 98 3d 64 f0 84 3e
       -0.20182803 -0.20341583 0.07468563 0.25964653
000020 6c f8 61 3e de 74 fe 3d 78 c0 21 3e 7d a8 ad bd
       0.22067422 0.124246344 0.15796077 -0.08479402
000030 34 2a 22 3e bd ac 71 3d 02 06 2c 3e 72 52 41 3e
       0.15836412 0.059002627 0.16799167 0.18879107
000040 74 de 9b 3d f0 ec 8a bd cf 8a b3 3d 41 b0 21 3e
       0.07610789 -0.067834735 0.0876671 0.15789892
000050 57 7d 0a 3e 55 a0 08 3e be b8 82 3e d2 4f 73 bd
       0.13524376 0.13342412 0.25531572 -0.059402294
000060 40 79 ec bd 60 aa 10 3e ae 09 26 bc a6 03 4b be
       -0.11546564 0.14127493 -0.010134144 -0.1982561
000070 a0 7f ac 3d f4 eb ca bd 3d 4e 3a 3e 7c 93 86 3d
       0.0842278 -0.09908286 0.18193908 0.06571099
